el2805_lab2_instructions_2021/problem1/neural-network-1.pth (torch, 22871 bytes, 6 tensors)

weight f4 [64, 8]
0	0xbe7c0eb1	-0.2461498
1	0xbee8f3c3	-0.45498475
2	0xbe713aee	-0.23557636
3	0xbda9ba2d	-0.08287463
4	0x3f8b6b94	1.0892205
5	0x3f466828	0.7750268
6	0x3f0a9b1f	0.54142946
7	0x3f349dc6	0.70553243
8	0xbe844f63	-0.25841817
9	0xbe1baaf9	-0.1520194
10	0xbf67a816	-0.90490854
11	0xbf3ce184	-0.7378161
12	0x3f34d22c	0.70633197
13	0x3f37a82d	0.7174099
14	0x3f50ed9d	0.8161257
15	0x3e08341e	0.13301131
16	0xbe86daa8	-0.26338696
17	0xbd2f3030	-0.042770565
18	0xbec9dc97	-0.3942611
19	0xbe00cf8e	-0.12579176
20	0x3fad9625	1.3561445
21	0x3ed1d116	0.40979832
22	0x3f943aa1	1.1580392
23	0xbf236023	-0.6381857
24	0x3ce4c0d3	0.027923977
25	0xbfe000bb	-1.7500223
26	0xbf1e4bd2	-0.6183444
27	0xbf7ccbb3	-0.9874832
28	0x3fae62ac	1.3623862
29	0x3e2da03c	0.16955656
30	0x3e485e2d	0.19567175
31	0x3ea48df6	0.32139558
32	0x3e85146a	0.25992137
33	0xbeda8b7a	-0.42684537
34	0x3e233e3c	0.1594171
35	0xbdb1de4e	-0.086849794
36	0xbef9dc10	-0.48800707
37	0x3f6ae1d4	0.91750836
38	0x3ede1b63	0.4338027
39	0xbfb2c9a1	-1.3967782
40	0xbebe08b3	-0.37116012
41	0xbe5ddc42	-0.21666053
42	0xbf00f8b9	-0.5037952
43	0xbbfec88a	-0.007775371
44	0x3f7ec7ec	0.99523807
45	0x3f50f043	0.8161661
46	0x3f387db7	0.72066826
47	0x3f03a256	0.5141958
48	0x3ea15f1a	0.3151787
49	0xbefc28de	-0.4924993
50	0x3f2cb664	0.67465806
51	0xbeb88f7c	-0.3604697
52	0xbf5381c7	-0.826199
53	0xbf8894a3	-1.067036
54	0x3f056bfb	0.5211789
55	0x3e84a17e	0.2590446
56	0xbd279975	-0.040917832
57	0xbf1f130c	-0.6213844
58	0xbe170baa	-0.14750543
59	0xbe08c1d4	-0.1335519
60	0xbeb31adb	-0.34981427
61	0x3f41fcae	0.75776184
62	0xbdec3321	-0.115331896
63	0xc0107da5	-2.2576687
64	0x3e93362f	0.28752276
65	0xbfd4d70c	-1.6628127
66	0x3ea99fa0	0.33129597
67	0xbfdb89ec	-1.7151465
68	0xbe611fab	-0.21984737
69	0xbe57ba28	-0.21067107
70	0xbf0b92ca	-0.5452086
71	0x3e5377e3	0.20651202
72	0xbf312f67	-0.69212955
73	0x3f3085df	0.6895427
74	0x3f3faf8a	0.74877226
75	0xbf2f760d	-0.68539506
76	0xc03e118c	-2.969821
77	0x3f7ab9ad	0.9793957
78	0x3f952ebf	1.1654891
79	0xc0613275	-3.5187047
80	0x3ef2268a	0.47295028
81	0x3f318329	0.6934076
82	0xbf474421	-0.7783833
83	0xbeab6dd5	-0.33482233
84	0x3fde7217	1.7378567
85	0xbfeabc86	-1.8338783
86	0xbf916970	-1.1360302
87	0x3f5a36fe	0.8524016
88	0x3e3f4204	0.18677527
89	0x3f1fdf30	0.6244993
90	0xbf23e914	-0.64027524
91	0xc00cf29c	-2.2023077
92	0xbd1e15cf	-0.038595017
93	0xbd458df0	-0.048231065
94	0xbfe45aa6	-1.7840164
95	0x3ea2a11a	0.31763536
96	0x3f7c039f	0.98443025
97	0x3f154dc8	0.5832181
98	0x3f217e97	0.63083786
99	0xbe06cd8c	-0.13164347
100	0xbfb0c899	-1.3811218
101	0xbdeb4334	-0.11487427
102	0x3f87b7c9	1.0602962
103	0x3cc1bb41	0.02364886
104	0x3ed231a1	0.4105349
105	0xbf1e8af7	-0.61930794
106	0x3edaf736	0.42766732
107	0x3e2800e0	0.16406584
108	0xbfc36306	-1.5264595
109	0xbd4aba0a	-0.049493827
110	0x3f0dd987	0.55410045
111	0xbe003520	-0.12520266
112	0xbf8daa7f	-1.1067656
113	0xc0128133	-2.2891357
114	0xbde23f7f	-0.11047267
115	0xbfceaecd	-1.6147095
116	0x3ec64e89	0.38731793
117	0x3e934867	0.28766176
118	0xbd24d9df	-0.04024684
119	0x3e840490	0.2578473
120	0xbfd6dddf	-1.678646
121	0xbf9f67c4	-1.2453542
122	0x3e1de719	0.15420188
123	0xbfd40ab8	-1.6565771
124	0x3f0094c2	0.50226986
125	0x3ca2cc58	0.01987283
126	0xbc9bf765	-0.019038865
127	0xbf4a2dad	-0.78975946
128	0xbd7c853d	-0.061650503
129	0xbc653708	-0.013990171
130	0x3d134f30	0.03596419
131	0x3ccf8965	0.02533407
132	0xc010bbf2	-2.2614713
133	0x3deaee57	0.11471241
134	0xbf9f7384	-1.2457128
135	0xbf83395b	-1.0251878
136	0x3d6d926b	0.058000963
137	0xbd1c8a0d	-0.038217593
138	0xbe923aca	-0.28560477
139	0xbff89ae1	-1.9422265
140	0x3dbedb99	0.09319229
141	0x3da66ac9	0.081258364
142	0xc0296f78	-2.6474285
143	0x3e46a762	0.19399789
144	0xbeee2840	-0.46515083
145	0x3e94440f	0.28958175
146	0xbf9e2d30	-1.235754
147	0xbea59fd3	-0.323485
148	0x3f2f7fd2	0.68554413
149	0x3f890266	1.0703857
150	0xbfba73ab	-1.4566549
151	0xbe91891e	-0.28424925
152	0xbf6950a3	-0.91138667
153	0xbe56afbe	-0.20965478
154	0xbef0747e	-0.46963876
155	0x3ef4ce51	0.47813657
156	0xbe1706e1	-0.14748718
157	0x3e31ea21	0.1737447
158	0xbe707187	-0.23480807
159	0x3f6e472a	0.9307734
160	0x3e8b8d9d	0.2725648
161	0x3c82f16d	0.015984261
162	0x3ef955e8	0.48698354
163	0xbfbdd5c1	-1.4830858
164	0x3f9330d7	1.149928
165	0xbe7075d9	-0.23482455
166	0x3f013f02	0.5048677
167	0xbe392292	-0.18079594
168	0x3ed5c79d	0.41753855
169	0x3f6b79d6	0.9198278
170	0x3e72be07	0.23705302
171	0xbf029ff5	-0.51025325
172	0xbf6149ef	-0.8800344
173	0x3e81f98a	0.25385696
174	0xbf48bd15	-0.78413516
175	0x3f4d3491	0.80158335
176	0xbf4399b5	-0.76406413
177	0x3ecda36a	0.40163738
178	0x3fb1381f	1.3845252
179	0x3fc638da	1.54861
180	0x3f2a20e9	0.66456467
181	0x3f138958	0.57631445
182	0x3e724b41	0.2366152
183	0x3f0b596f	0.5443334
184	0xbe37d99c	-0.17954105
185	0xbce462da	-0.027879167
186	0xbd9cc8b8	-0.076554716
187	0xbf80fc4c	-1.0076995
188	0x3f9f71d8	1.2456617
189	0x3f9223c6	1.1417167
190	0x3e078a9f	0.13236474
191	0xbe50a554	-0.20375568
192	0x3eba981c	0.36444175
193	0x3e070166	0.13184127
194	0xbe2e91af	-0.17047761
195	0x3f00b731	0.5027953
196	0xbe6d87d2	-0.23196343
197	0xbf366541	-0.7124825
198	0x3ec96122	0.3933192
199	0x3f3ba182	0.73293316
200	0xbf05e300	-0.522995
201	0x3f1b832e	0.6074704
202	0xbfbecd08	-1.490632
203	0xbf3db1d1	-0.7409945
204	0xbf253853	-0.6453907
205	0x3f9bc815	1.2170435
206	0xbc480585	-0.012208347
207	0x3fadbe03	1.3573612
208	0xbf2dceca	-0.6789366
209	0x3f330cd7	0.6994147
210	0x40027afc	2.0387564
211	0xbf3c5e0a	-0.7358099
212	0xbf569e1b	-0.83835
213	0xbf1eb4a7	-0.61994404
214	0xbe71f2e8	-0.23627818
215	0xbf342097	-0.7036223
216	0x3edf7a9e	0.43648237
217	0xbf9be4b2	-1.2179167
218	0x3f82191d	1.0163914
219	0xbddb6a91	-0.10713685
220	0xbe32bd58	-0.17455041
221	0xbfd5dd7d	-1.6708218
222	0x3ed4ffa2	0.41601282
223	0xbe67632b	-0.22596423
224	0x3f0053fd	0.50128156
225	0x3d29a99b	0.041421514
226	0xbdde20f7	-0.10846131
227	0x3e8a3114	0.2699057
228	0xbf799bfd	-0.97503644
229	0xbf096e0b	-0.5368354
230	0x3f24492d	0.6417416
231	0x3f779508	0.9671178
232	0x3e0f5eb2	0.14000967
233	0xbeae33b1	-0.34023812
234	0xbedf8435	-0.43655553
235	0xbf4bdbe5	-0.7963241
236	0xc02088ad	-2.508342
237	0x3cff0bea	0.03113361
238	0xbb3a2c70	-0.0028407834
239	0x3f858843	1.0432209
240	0xbeb6bb3b	-0.3568972
241	0xbf16ecf2	-0.589553
242	0xbf8077c6	-1.0036552
243	0xbf109f65	-0.56493217
244	0xbd6cb41f	-0.057788964
245	0x3f150eb7	0.5822558
246	0x3f0662cb	0.52494496
247	0x3dff55f7	0.12467568
248	0xbebf11ba	-0.37318212
249	0xbf9fcfb9	-1.2485267
250	0xbe1bd4f5	-0.15217955
251	0xbf3529ec	-0.7076709
252	0x3f8ddbf8	1.1082754
253	0xbe395dbd	-0.18102165
254	0x3f758e21	0.95919997
255	0x3e363f2f	0.1779754

bias f4 [64]
0	0x3d8b77b6	0.068099424
1	0xbf03fe32	-0.51559746
2	0xbe0bbc62	-0.13646081
3	0x3f0e7666	0.5564941
4	0x3f167750	0.58775806
5	0x3d5f2d48	0.054486543
6	0xbea9c3f7	-0.33157322
7	0x3efddee7	0.49584123
8	0xbec95ea8	-0.3933003
9	0xbd7f4990	-0.062326014
10	0x3f0664f3	0.52497786
11	0x3e8e50db	0.27796063
12	0x3e2981a2	0.16553357
13	0x3f2c5c68	0.673285
14	0xbf016bfc	-0.50555396
15	0xbe8d85ad	-0.2764105
16	0x3cd013a1	0.025399985
17	0xbcc79fa0	-0.024368107
18	0x3ec0f4a4	0.37686646
19	0xbd4b0b28	-0.049571186
20	0x3f05a23a	0.52200663
21	0xbf15f550	-0.5857744
22	0xbe4ec037	-0.20190512
23	0xbf5f88ce	-0.8731812
24	0x3ea60017	0.32421944
25	0xbe90f98d	-0.28315392
26	0x3e286762	0.16445687
27	0x3dc22563	0.09479787
28	0x3e3f460a	0.18679062
29	0xbdae99f9	-0.08525462
30	0x3effefd5	0.49987665
31	0x3f93bf69	1.1542789
32	0xbea472c3	-0.32118806
33	0x3cedae6d	0.029013837
34	0xbf30d0cd	-0.69068605
35	0x3e24a432	0.1607826
36	0x3cd06461	0.02543849
37	0x3d021acf	0.031763848
38	0x3ef13785	0.4711267
39	0x3de14cbb	0.11000963
40	0x3e95fced	0.2929453
41	0x3e925eff	0.285881
42	0x3f8c21b2	1.0947783
43	0x3ed818b3	0.42206344
44	0x3f5d543a	0.86456645
45	0x3f8c3fd0	1.0956974
46	0x3d7c9ef9	0.061675046
47	0x3e3cb51f	0.18428467
48	0xbe5df03b	-0.21673672
49	0xbec0a675	-0.37626997
50	0x3ea00771	0.31255677
51	0x3ec56760	0.3855543
52	0x3e88dd5d	0.26731387
53	0xbf1b716d	-0.6071995
54	0x3dd7af42	0.10531475
55	0xbf58913f	-0.8459663
56	0xbdd024ab	-0.10163244
57	0x3ca093fe	0.019601818
58	0x3f200f6f	0.6252355
59	0x3daac3cd	0.08338127
60	0xbf2a6192	-0.6655513
61	0x3f50e1c8	0.81594515
62	0x3e7dba83	0.2477818
63	0x3f32bd0f	0.6981973

weight f4 [64, 64]
0	0x3d82ea05	0.06392292
1	0x3ed7cbf7	0.421478
2	0x3f1b490c	0.60658336
3	0x3de73948	0.112902224
4	0x3f29fc78	0.6640086
5	0x3e84f752	0.2596994
6	0x3e92a16b	0.28638777
7	0x3ecd036e	0.4004168
8	0x3f07aa99	0.52994686
9	0x3e5ee484	0.2176686
10	0x3da3c9db	0.07997485
11	0x3ecdb3bd	0.40176192
12	0x3f249a97	0.64298385
13	0x3ea43033	0.32068023
14	0x3f6565f8	0.89608717
15	0xbd3fda1c	-0.046838865
16	0xbfaa441b	-1.3302034
17	0xbf3016c5	-0.68784744
18	0x3ef97005	0.48718277
19	0x3fa733f2	1.3062727
20	0xbe3d47a8	-0.18484366
21	0x3e96a004	0.29418957
22	0xbc837c33	-0.016050434
23	0xbf5710fe	-0.84010303
24	0x3ef0bf53	0.4702097
25	0x3ea7c12a	0.3276456
26	0xbed3a053	-0.41333255
27	0x3e530b1f	0.20609711
28	0x3f13b51d	0.5769823
29	0xbf0a1592	-0.53939164
30	0xbe92bee2	-0.28661257
31	0xbea03491	-0.31290105
32	0x3eda0fff	0.4259033
33	0x3f3ebcbf	0.74506754
34	0x3f0ba335	0.5454591
35	0xbecc0fa7	-0.39855692
36	0xbddb5815	-0.1071016
37	0xbd9aca86	-0.075581595
38	0xbe8190c0	-0.25305748
39	0xbe7f2921	-0.24918033
40	0xbe9e9b5c	-0.30977905
41	0x3ed77f8b	0.42089495
42	0x3d4caa2f	0.049966987
43	0xbf06f616	-0.5271925
44	0xbf25a229	-0.6470056
45	0xbe5d26c7	-0.21596824
46	0xbf8e4b49	-1.1116725
47	0xbf0b2074	-0.54346395
48	0x3ef47866	0.47748107
49	0xbd262973	-0.040566873
50	0x3ea92b93	0.33041057
51	0x3efff7f3	0.49993858
52	0x3e8e7f3a	0.2783144
53	0x3f0be40e	0.5464486
54	0x3cbafd53	0.022825873
55	0x3facb02b	1.3491262
56	0x3e8964b1	0.26834634
57	0xbf0b6002	-0.5444337
58	0x3dadc2d1	0.08484424
59	0xbec69e8c	-0.38792837
60	0x3f8208a4	1.0158887
61	0x3ef4c8c8	0.47809434
62	0x3df8d5ef	0.121501796
63	0xbe133477	-0.14375482
64	0x3f25ba70	0.64737606
65	0x3e1f6247	0.15564834
66	0xbeedae44	-0.46422017
67	0x3f182134	0.59425664
68	0xbca822b6	-0.020524364
69	0x3e4b9b07	0.19883357
70	0xbe2182a1	-0.15772487
71	0x3f106a51	0.56412226
72	0x3f9fcc33	1.2484192
73	0x3bf9ed66	0.007627177
74	0xbf17e31b	-0.5933091
75	0x3ecc6eae	0.39928192
76	0x3d8b5f3d	0.06805275
77	0x3ebe489d	0.37164775
78	0x3ec09a7d	0.37617865
79	0x3fa4b32c	1.2867179
80	0x3f64912b	0.8928401
81	0xbf2916da	-0.66050494
82	0xbe16b69e	-0.147181
83	0xbf4ed092	-0.80787003
84	0x3e44cd65	0.19218977
85	0x3e477b28	0.19480574
86	0x3e6b38dc	0.22970909
87	0xbef4f8c4	-0.47846043
88	0xbe903169	-0.28162697
89	0xbd5b4aaf	-0.05353802
90	0xbe127c73	-0.14305286
91	0x3d9d1c49	0.076714106
92	0xbee23f8b	-0.44189104
93	0xbe8dccd3	-0.2769533
94	0x3eb59dad	0.3547186
95	0x3bb51564	0.0055262316
96	0xbf1afb08	-0.60539293
97	0x3e0dd9c3	0.13852601
98	0xbdb3a85a	-0.08772345
99	0xbfd30679	-1.648635
100	0x3f7bbba0	0.9833317
101	0x3dfabd53	0.12243142
102	0x3f015eb6	0.5053514
103	0x3e601eac	0.218867
104	0x3e808ab8	0.25105834
105	0xbf837a0e	-1.0271623
106	0xbbd683b8	-0.006546464
107	0xbe8f7604	-0.28019726
108	0xbdec70ca	-0.1154495
109	0x3e876ff3	0.26452598
110	0xbe265a8c	-0.16245478
111	0x3ea9130a	0.33022338
112	0x3ef889a9	0.48542526
113	0x3ead9132	0.33899838
114	0x3da8ee0b	0.08248528
115	0x3f027f78	0.5097575
116	0x3eaed416	0.34146184
117	0xbe78080a	-0.24221817
118	0x3f973137	1.1811894
119	0x3e9e89e5	0.3096458
120	0x3f3973e8	0.72442484
121	0x3ef09467	0.46988222
122	0xbdb4e697	-0.08833044
123	0xbef56f50	-0.47936487
124	0x3ec9e819	0.3943489
125	0xbeac5e5c	-0.3366574
126	0x3ed6e6e6	0.41973037
127	0x3d9405aa	0.07227643
128	0xbe816b7b	-0.25277314
129	0xbfaaa4f6	-1.3331592
130	0x3e81a526	0.2532131
131	0x3e03dec8	0.12877953
132	0xbf60d411	-0.8782359
133	0x40162545	2.3460248
134	0x3ed0626f	0.407001
135	0xc00a1386	-2.1574416
136	0x3f774eaa	0.96604407
137	0x3e1fb275	0.1559542
138	0x3f601b10	0.87541294
139	0x3d05d6ca	0.032675542
140	0x3e0f0d2a	0.13969865
141	0xbf99aba4	-1.2005506
142	0x3f437125	0.7634452
143	0x3f962793	1.1730827
144	0xbf59058d	-0.84774095
145	0x3f21ff54	0.63280225
146	0x3f028d09	0.5099645
147	0xc01101f1	-2.2657435
148	0xbd7b96e2	-0.06142319
149	0x3e96f97f	0.29487225
150	0xbdaa0ae3	-0.08302858
151	0x4046f9e5	3.1090024
152	0x3ee24d44	0.44199574
153	0xbf009516	-0.5022749
154	0x3f2161d2	0.63039887
155	0x3f77acac	0.9674785
156	0x3ee8963b	0.45427117
157	0x3e8f62ae	0.28004974
158	0x3e77da93	0.24204473
159	0xc04f3397	-3.2375238
160	0x3f6eee8f	0.9333276
161	0x3f6e6084	0.9311602
162	0xbf03b926	-0.5145439
163	0x3ea5dc6c	0.3239473
164	0x3f89a631	1.0753843
165	0xbf0bd609	-0.54623467
166	0x3f29e838	0.6636996
167	0xbe2ff1ee	-0.17182133
168	0x3dcc521e	0.099766
169	0x3f16a85c	0.58850646
170	0xbf7fce42	-0.999241
171	0xbf23874e	-0.63878334
172	0xbf9636a0	-1.173542
173	0xbfa9e360	-1.3272514
174	0xbfb3f4bb	-1.4059061
175	0xbead85c9	-0.33891132
176	0x3f9455b2	1.1588652
177	0xbda9e4b3	-0.08295574
178	0xbd403337	-0.046923842
179	0x3eca2fd3	0.39489612
180	0xbd5030e5	-0.05082788
181	0x3f0e4724	0.555773
182	0x3fd701c7	1.6797417
183	0xbf4c0752	-0.7969867
184	0xbeaa1207	-0.3321688
185	0xc0026ead	-2.038005
186	0xbe370c7b	-0.17875855
187	0xbee3b90c	-0.44477117
188	0x401e0ea6	2.469644
189	0x3e7cf63f	0.2470331
190	0xc0009cd2	-2.0095716
191	0x3f1376ff	0.5760345
192	0xbcdf4780	-0.027255774
193	0x3dd20617	0.10255068
194	0x3d6f09c9	0.05835894
195	0xbe022e83	-0.12713055
196	0xbd449bb4	-0.048000053
197	0xbd3f1d65	-0.046658892
198	0xbf3e296c	-0.74281955
199	0x3ba69226	0.00508334
200	0xbf8e4783	-1.1115574
201	0x3eaf09d9	0.341872
202	0xbcfe9b4c	-0.03107991
203	0x3f850d31	1.0394651
204	0xbf0b3526	-0.54377973
205	0xbc5a94f0	-0.0133411735
206	0x3eeace85	0.45860687
207	0x3f8e2823	1.1105999
208	0x3eb9c4cf	0.36282966
209	0x3e96e84d	0.29474106
210	0x3ee8c670	0.45463896
211	0xbdc0b483	-0.0940943
212	0x3e94a32e	0.29030746
213	0x3f55325b	0.8327996
214	0x3e9d92a7	0.3077595
215	0x3effc3ca	0.49954063
216	0xbf732db6	-0.94991624
217	0xbe0fb7cc	-0.14034957
218	0xbebb37aa	-0.36565906
219	0xbf075f3d	-0.528797
220	0xbd647462	-0.055775054
221	0x3f2ea9af	0.68227667
222	0x3b19966d	0.0023435608
223	0xbe178c87	-0.147997
224	0x3ed32cb4	0.41245043
225	0x3eaf4eac	0.3423971
226	0xbfff4f15	-1.9946009
227	0xbfbe8002	-1.4882815
228	0x3f67114e	0.9026078
229	0xbef5e6e2	-0.48027712
230	0x3d713e93	0.058897566
231	0x3bc50355	0.00601236
232	0x3e1dac5e	0.15397784
233	0xbf1537a3	-0.5828802
234	0xbf1e2ca2	-0.61786854
235	0x3e9db489	0.308018
236	0xbf227733	-0.63463134
237	0x3db730db	0.08944865
238	0xbf1462c6	-0.57963216
239	0x3ea79ee2	0.32738405
240	0x3d12f45c	0.03587757
241	0x3fd3529c	1.6509585
242	0x3e8f05d6	0.2793414
243	0x3ee8f12c	0.454965
244	0x3e853fe4	0.26025307
245	0xc0688807	-3.6333025
246	0xbf8dc0fb	-1.1074518
247	0x3f8c7942	1.0974505
248	0x3f073d59	0.52827984
249	0xbcf53d26	-0.029936384
250	0x3da0d8dd	0.078538634
251	0xbf4b6385	-0.7944873
252	0x3eac7a35	0.33686987
253	0x3eea0345	0.4570562
254	0x3e726242	0.23670295
255	0x3f2d9225	0.67801124

bias f4 [64]
0	0xbccd6f09	-0.02507736
1	0x3db7f4d4	0.08982244
2	0xbd682b12	-0.0566817
3	0x3e2f2b3e	0.1710634
4	0x3e9d2aee	0.30696815
5	0x3f4dd02d	0.80395776
6	0xbe9704f4	-0.29495966
7	0xbcb59aea	-0.022168595
8	0x3e61f9cf	0.2206795
9	0xbe83ce84	-0.25743496
10	0xbd528ff7	-0.051406827
11	0x3da6db84	0.08147338
12	0x3ec39192	0.38197
13	0xbf1e124d	-0.61746675
14	0x3d8a2f04	0.06747249
15	0x3f02bf81	0.5107346
16	0xbe85ea59	-0.26155356
17	0xbe09b9ce	-0.13449785
18	0x3e789abb	0.24277775
19	0xbe230616	-0.1592029
20	0x3eaff26f	0.3436465
21	0xbe376877	-0.17910944
22	0xbecbe048	-0.3981955
23	0xbd433475	-0.04765745
24	0xbf5d4116	-0.8642744
25	0x3e3b3da3	0.18285231
26	0xbe97755a	-0.2958172
27	0xbdbd9528	-0.09256965
28	0xbc38d637	-0.011281542
29	0xbe44f065	-0.19232328
30	0xbf2573c4	-0.6462977
31	0x3d41cb1a	0.047312833
32	0xbdb0687e	-0.0861368
33	0xbe993430	-0.29922628
34	0xbeaad9a4	-0.33369172
35	0x3ead35f7	0.33830234
36	0x3b1f8ca2	0.0024345298
37	0xbdc03a5e	-0.09386133
38	0xbed76bd1	-0.42074445
39	0xbee1e998	-0.4412353
40	0xbc3ff187	-0.011715299
41	0x3e99ac78	0.30014396
42	0xbdd6e987	-0.104937606
43	0x3cb466b9	0.022021638
44	0xbe85ee53	-0.2615839
45	0xbe04f024	-0.12982231
46	0xbe1b3b32	-0.151593
47	0xbd6c8e02	-0.057752617
48	0xbd6eecb5	-0.05833121
49	0x3ea84af7	0.32869694
50	0x3ea9cd0e	0.33164257
51	0xbdf7de29	-0.121029206
52	0x3e965a13	0.29365596
53	0xbeb80d85	-0.35947815
54	0xbe7fce60	-0.2498107
55	0xbdd023f7	-0.1016311
56	0xbe8e9c73	-0.27853736
57	0xbdec7973	-0.11546602
58	0xbed0c566	-0.40775603
59	0x3ee8242a	0.4534009
60	0x3f03559f	0.5130252
61	0x3cc9dfe1	0.024642887
62	0x3e9400ee	0.2890696
63	0x3e688837	0.22708212

weight f4 [4, 64]
0	0xbe88ae24	-0.2669536
1	0xbe7b0fe2	-0.24517778
2	0xbfdccbbb	-1.7249674
3	0xbd833717	-0.06406992
4	0x40253ef8	2.5819683
5	0xbfe13312	-1.759371
6	0xbf050c00	-0.51971436
7	0xbc3433d4	-0.010998685
8	0xbf4e1042	-0.8049356
9	0x3f321c6d	0.69574624
10	0xbeebbddc	-0.4604329
11	0xbf26268d	-0.64902574
12	0xbeda8c14	-0.42684996
13	0xbfb592a7	-1.418538
14	0xbe94cd76	-0.29063004
15	0x3ffadab2	1.959799
16	0xbeb27cab	-0.3486074
17	0x3fcca576	1.5987995
18	0xbfa1ee34	-1.2650819
19	0xbef57590	-0.47941256
20	0xbfd7e4d3	-1.6866707
21	0x3d65d015	0.056106646
22	0x4006c647	2.105852
23	0xbfac3870	-1.3454723
24	0x3f1c18c7	0.6097531
25	0xbf11111b	-0.56666726
26	0xbedf23c2	-0.4358197
27	0x3f3ff13a	0.7497746
28	0xbec4de9a	-0.38451082
29	0xbef81afe	-0.48458093
30	0xbfb60874	-1.422133
31	0xbf37073a	-0.714954
32	0xbdaa8308	-0.083257735
33	0xbf1d65b7	-0.6148333
34	0xbfab580e	-1.3386247
35	0x3fc3a391	1.5284292
36	0x3e406e85	0.1879216
37	0x3deb326f	0.11484229
38	0xbefb419c	-0.49073493
39	0xbf0bf313	-0.54667777
40	0xbe06fd79	-0.1318263
41	0x3fbcd83e	1.4753492
42	0x3d5a0a30	0.05323237
43	0xbd723cc0	-0.059139967
44	0xbf00e11d	-0.50343496
45	0xbd806b90	-0.06270516
46	0xbe94fde3	-0.2909995
47	0x3f18e032	0.59717095
48	0x3dad8c94	0.08474079
49	0x3ba7feef	0.005126826
50	0xbf04776f	-0.5174474
51	0x3dd4be70	0.103878856
52	0x3f94f666	1.1637695
53	0x4010985a	2.2592988
54	0xbfebac55	-1.8411967
55	0xbeee0f83	-0.4649621
56	0xbf5b7e31	-0.8573943
57	0xbe7b908d	-0.2456686
58	0xbeca263e	-0.394823
59	0x3fe6d229	1.8032886
60	0x3fd073a7	1.6285294
61	0xbeb88a86	-0.36043185
62	0x3fbf4af0	1.4944744
63	0x3fbcb0a1	1.4741403
64	0xbe956197	-0.29176018
65	0xbcb072e4	-0.02153916
66	0xbfc0dc12	-1.506716
67	0xbf9d261a	-1.2277253
68	0x40380ab3	2.875653
69	0xbff69b9d	-1.926624
70	0xbeccd7c7	-0.40008375
71	0xbd7a8ace	-0.06116753
72	0xbfcee105	-1.616242
73	0x3de59744	0.11210492
74	0xbf07fa92	-0.53116715
75	0xbee17c6f	-0.44040248
76	0xbf9834df	-1.1891135
77	0xbfcde07a	-1.608413
78	0xbe6b76de	-0.22994563
79	0x3ff49117	1.9106778
80	0xbe5554f2	-0.20833185
81	0x40152df3	2.3309295
82	0xbf8fba94	-1.1228814
83	0xbe9fd408	-0.31216455
84	0xbfb16019	-1.3857452
85	0x3f3b23b8	0.7310138
86	0x4005bec4	2.0897684
87	0xbfbc8868	-1.4729128
88	0x3e961932	0.29316097
89	0xbdfa1132	-0.12210311
90	0xbee0b8ac	-0.43890893
91	0x3f3e2915	0.74281436
92	0xbd8cf252	-0.068821564
93	0xbf1f4317	-0.62211746
94	0xbfe262f0	-1.7686443
95	0xbf528fc1	-0.822506
96	0xbd9cba8e	-0.0765277
97	0xbf41d143	-0.75709933
98	0xbfc8f947	-1.5701073
99	0x3fc79fc8	1.5595636
100	0x3df369a9	0.118853875
101	0xbdec63bc	-0.1154246
102	0xbf1021cf	-0.5630159
103	0xbe71d34a	-0.23615757
104	0x3dc7c5c4	0.09754518
105	0x3f7daca3	0.9909155
106	0x3da842e6	0.08215885
107	0xbd869464	-0.06571272
108	0xbeeda8df	-0.464179
109	0xbbc3caf9	-0.005975124
110	0xbd5c898d	-0.053842116
111	0x3f6276d9	0.884626
112	0xbda9cd30	-0.082910895
113	0xbd601fb7	-0.054717746
114	0xbe12c0bc	-0.14331335
115	0xbcb1140a	-0.021616
116	0x3f92480c	1.1428237
117	0x4029b97f	2.6519468
118	0xc03eeff0	-2.9833946
119	0xbee13484	-0.4398538
120	0xbf910c27	-1.1331834
121	0xbf0deaa8	-0.5543618
122	0xbf0c6d11	-0.5485392
123	0x3feba3f2	1.8409407
124	0x3fc5a3ae	1.5440576
125	0xbf4ff552	-0.81233704
126	0x3feb2f7f	1.837387
127	0x3fa341f8	1.2754507
128	0xbf0face1	-0.5612317
129	0x3f257c81	0.646431
130	0xbfad4596	-1.3536861
131	0xbec0fa10	-0.37690783
132	0x40068e33	2.1024292
133	0xbfc19887	-1.5124673
134	0xbf48ebe2	-0.7848493
135	0xbdbf19a1	-0.0933106
136	0xbf6d81e4	-0.9277632
137	0x3f831ac3	1.0242542
138	0xbf0c6be4	-0.5485213
139	0xbe985e1b	-0.29759297
140	0xbf54d159	-0.8313194
141	0xbf915f53	-1.1357216
142	0xbf194a54	-0.5987904
143	0x4005fb27	2.0934541
144	0xbf3c3172	-0.7351295
145	0x3ecb1d64	0.3967086
146	0xbfe50571	-1.7892286
147	0xbec24b27	-0.37947962
148	0xbfe3f452	-1.7808936
149	0xbf80159c	-1.0006595
150	0x3fff7094	1.9956231
151	0xbff47fc9	-1.9101497
152	0xc03e81a9	-2.9766638
153	0xbf8b61a8	-1.0889177
154	0xbed5bf7a	-0.41747648
155	0x3f74e9fe	0.95669544
156	0xbed26c67	-0.4109833
157	0xbd27f884	-0.041008487
158	0xbfd2dac8	-1.6473017
159	0xbd110051	-0.035400692
160	0xbe18e92f	-0.14932702
161	0xbe7fe823	-0.24990897
162	0xbf3bbca4	-0.7333472
163	0x3fcd35cc	1.6032043
164	0xbdde69f7	-0.10860055
165	0xbcd3fdb0	-0.025877804
166	0xbf10fe6d	-0.5663822
167	0xbf1bca8f	-0.60855955
168	0x3d5b2c13	0.05350883
169	0x3fdad1a8	1.7095232
170	0x3b09f43c	0.0021050116
171	0x3c2257d1	0.009908632
172	0xbf58c735	-0.84678966
173	0xbb466527	-0.0030272694
174	0xbf696036	-0.9116243
175	0x3d680f4d	0.056655217
176	0x3de2b108	0.11068922
177	0x3f65a63e	0.8970679
178	0xbf31cda3	-0.694544
179	0x3d27815c	0.04089485
180	0x3faef163	1.3667415
181	0x4016b74f	2.3549383
182	0xc04c45f1	-3.191769
183	0xbeb9910a	-0.3624347
184	0x3da6d863	0.08146741
185	0xbf6b2af9	-0.91862446
186	0xbf69899a	-0.9122559
187	0x40166181	2.3497012
188	0x3fbac921	1.459263
189	0x3f337993	0.7010738
190	0x3f845e5d	1.0341297
191	0x3fc8a589	1.5675517
192	0xbf00ba44	-0.5028422
193	0xbeb16256	-0.34645337
194	0xbfe30277	-1.7735127
195	0x3f2f8b04	0.68571496
196	0x40165ff8	2.3496075
197	0xbfaec09a	-1.3652527
198	0xbf3b0286	-0.73050725
199	0x3d5c7683	0.05382396
200	0xbe7464d6	-0.23866591
201	0x3f96a899	1.1770202
202	0xbefbe916	-0.49201268
203	0xbed47846	-0.4149801
204	0x3e94740d	0.2899479
205	0xbf931052	-1.1489356
206	0xbf1f76d1	-0.62290674
207	0x4002d66b	2.044337
208	0xbf0c34cd	-0.5476807
209	0x3fbb7693	1.4645561
210	0xbfa26d97	-1.2689694
211	0xbf000b3c	-0.5001714
212	0xbfff577d	-1.9948574
213	0xbea6dc24	-0.3258983
214	0x3ff8d014	1.94385
215	0xbfc8c696	-1.5685604
216	0x3fc7bd09	1.5604564
217	0xbf819f8d	-1.0126816
218	0xbeae4906	-0.34040087
219	0x3f951373	1.164656
220	0xbef768a6	-0.48322028
221	0xbee847b9	-0.4536722
222	0xbfa9a992	-1.3254874
223	0xbf7dc944	-0.9913523
224	0xbce50dac	-0.02796062
225	0xbef8f0a7	-0.48621103
226	0xbf993c18	-1.1971464
227	0x3fc14e0b	1.5101942
228	0x3d39a1a2	0.04532016
229	0xbcbbde40	-0.022933125
230	0xbed5ccf5	-0.41757932
231	0xbeca761e	-0.3954324
232	0x3dbe8983	0.09303572
233	0x3fdfc9e4	1.7483487
234	0xbbf650b7	-0.007516946
235	0x3d7363ac	0.059421226
236	0xbefbec7b	-0.49203858
237	0xbdbe5b6a	-0.092947796
238	0xbdbf725f	-0.093479864
239	0x3f4c85d7	0.79891723
240	0xbda9e09c	-0.08294794
241	0xbe756da7	-0.2396761
242	0xbf36a242	-0.71341336
243	0x3cf30d38	0.02966939
244	0x3fabde53	1.3427223
245	0x3ffd9502	1.9811099
246	0xc0318477	-2.77371
247	0xbed95183	-0.42445
248	0xbf2275c1	-0.6346093
249	0xbeb7c3a4	-0.3589145
250	0xbec981f5	-0.39356962
251	0x3fddc61f	1.7326087
252	0x3fc4ea40	1.5383987
253	0xbf0321dd	-0.51223546
254	0x3faf97cf	1.3718203
255	0x3fb6c12e	1.4277704

bias f4 [4]
0	0x3ed44339	0.41457537
1	0x3f40b08c	0.7526939
2	0x3eee0612	0.46489006
3	0xbe4dd3c3	-0.20100312
