el2805_lab2_instructions_2021/problem3/neural-network-3-actor.pth (torch, 663431 bytes, 10 tensors)

weight f4 [400, 8]
00000000: 4cb7 8cbe cd2f 803e 57b0 acbe 3749 e13d
00000010: 40c8 b9bd c9e3 193e 272b 213e f456 83be
00000020: 6ddc d1bd 3ad0 793e 3246 80be ffaa 703e
00000030: 36d3 6d3e e0a7 a83e ae24 92be f8b9 9f3e
00000040: b5c9 83bd 2fec 7b3a 5213 b4be 8676 9f3e
00000050: 8450 aa3e 366d 383e 33df c4bd abef 973e
00000060: f0bc 8cbe c4a5 233e bc06 58be 22d6 2b3e
00000070: 9713 8ebe 0120 34be f3ae a1be 4308 c8bd
00000080: 6b80 8fbe 2e2b cf3d e3b4 91be 6eaf 67be
00000090: d52e a6be 725b 9fbe bd46 4c3e 3b01 4abe
000000a0: 5d16 97bd 47f3 76be d294 50be 5b3b 22be
000000b0: 08b9 50be 1961 43be c1fc abbe 1607 b43e
000000c0: 4e5a 04be 0ee2 373e dbec 793e b22e acbe
000000d0: 8e8b 21be a722 913b 304a 94be 7acc 90be
000000e0: a7dc 76be 4443 95be 6ac0 413e 8581 34be
000000f0: a851 863d 7473 b1bd 4a5c 9bbe 8420 97bd
00000100: 66cb 98bd a569 9abe e423 ab3e f2c8 9e3e
00000110: 9c15 46be 8f89 0bbe ad7e 91be 6cdc 8dbe
00000120: fa2a 883e 1ab4 1c3e 90d2 803e 1c00 3bbe
00000130: c9ab 59be 4b77 bcbe 0c7a 603e feea b2be
00000140: 8cdb 173b ea59 aebe 5d33 bebd dd09 fc3d
00000150: eedf 9cbe fa34 c0bd ad77 8e3e 2d4c 93be
00000160: 623c a33e 47b9 ae3d 645b 05bd e19b 423e
00000170: c3f5 9c3d e4c9 bbbd 21b5 0cbd a567 dabd
00000180: f217 6fbc 0fce 1f3e f926 e33d ee16 b03d
00000190: c819 8dbe e32f 63be 4708 433e 721f ac3e
000001a0: 85a8 06be a12f 9e3e b734 babe 6562 5dbe
000001b0: c127 a33a 3cd8 c2bd 1529 7fbe 881d 963e
000001c0: 320f 85be eac3 693e 5052 43be 99f1 20be
000001d0: b9b8 82be 3e23 553e ca55 233e 15a2 913d
000001e0: 882f a7be c2cf 113e cc2a 8c3e 1c26 93be
000001f0: e8ee 9b3e 1acf 18be 3c68 a13e dc28 953e
00000200: 96f7 2abe 1027 35be d903 6a3e cfe4 623e
00000210: b0c1 6fbe 01d8 a7be 8682 393e 0a8f 09be
00000220: d644 3e3e 1e15 9bbe 0f46 143e 26b5 5bbe
00000230: a315 f2ba 5362 9b3d 6408 8a3e 9386 3d3e
00000240: bfd5 ae3d 96bf d73c ebec f03d 8822 8b3e
00000250: 56fc 313e e59f 4bbe 5aa0 85be 508c 983e
00000260: fe21 043e 5a56 15be 80a7 a9bd 41cc 81be
00000270: 7b3d 5cbe 613c bb3d 3ab8 783e 7668 6a3d
00000280: 7f2e 883e 4c40 983e 179e f93d e9d7 af3e
00000290: e38b 2a3d 88b5 b7be cfd1 673e 4560 4abe
000002a0: 562c 9c3e 2deb 59be 6ec3 723e d597 2c3e
000002b0: 038a 613e 518d 55be 98af 673e 9ff5 563c
000002c0: 2904 633e 8b06 7e3e 4bc2 a93e c5c2 50bd
000002d0: 6eea 843e 1255 8f3e 72e2 94be 5eee 803d
000002e0: 4385 463e 521c d53d c99c ea3d 1ea8 68be
000002f0: a235 123c 9631 283e c005 1abe def5 b23d
00000300: de97 523e d14c 8ebc 9056 44be 8e70 2a3e
00000310: c87b 57be ce75 f9bc 9bc8 593e 0ede fdbd
00000320: 609a 91be 0dbf f3bc bf3c 563e 720a 68be
00000330: bd0c 803c ee91 a7bd 6817 5abd f92b 953e
00000340: 7d18 27be ada4 a1be 4041 4fbe 8f06 76be
00000350: 3f0d 873e 576d a6bc 3cb5 a3be 56e7 993e
00000360: e589 a0be 47d3 9fbd b4b3 793e b9ed 91be
00000370: b2df 713e fa24 553e 8e57 a43c 7b70 933b
00000380: b9c4 6e3e 00ef 95be ecd1 1e3e d559 b23e
00000390: d264 6ebe da5c 343e 7bdb 383e 8b73 1abe
000003a0: 3e50 7e3d 4660 56bc 6162 b23e 852d c4bc
000003b0: 90ac 2e3d 314c d0bd 9b84 a93d 7109 49be
000003c0: cfb1 57be 9ceb 293e 6aad 87be f3dd 893e
000003d0: 9d14 4d3d 84a8 913e c286 4cbe 0ed3 8abe
000003e0: ef80 7f3e d81f 593d 3de3 0ebd 42cc 8f3e
000003f0: 4172 a43e 40a3 13be 87cc 4a3e 387b 9a3e
-0.27483594 0.2503647 -0.33728287 0.11000293 -0.09071398 0.150283 0.15739118 -0.25652277
-0.10247121 0.24395838 -0.25053555 0.2350273 0.23225102 0.32940578 -0.2854361 0.3119657
-0.06434957 0.0009610084 -0.3517099 0.31145114 0.33264554 0.1801041 -0.09612884 0.2967504
-0.27487898 0.15981203 -0.21096319 0.16780904 -0.2774932 -0.17590334 -0.31578788 -0.09767201
-0.28027663 0.10115658 -0.28458318 -0.22625515 -0.32457605 -0.31124455 0.1994886 -0.19727032
-0.07377312 -0.2411624 -0.2036927 -0.15842955 -0.20383084 -0.19080009 -0.33591273 0.35161656
-0.12925074 0.17957327 0.2440676 -0.33629376 -0.15775892 0.0044291797 -0.2896285 -0.28281003
-0.2410761 -0.29152882 0.18921056 -0.17627533 0.065585434 -0.08664599 -0.30343848 -0.07379249
-0.0746067 -0.30158725 0.3342582 0.31012684 -0.19344181 -0.13626693 -0.28416958 -0.2770723
0.2659529 0.15303078 0.25160646 -0.1826176 -0.21256937 -0.36809763 0.21921557 -0.3494491
0.0023171632 -0.34052974 -0.092871405 0.12306569 -0.30639595 -0.093851045 0.2782568 -0.28769055
0.31882006 0.085314326 -0.03255786 0.19004776 0.07664063 -0.09169367 -0.034352425 -0.106643
-0.014593111 0.15605949 0.11091418 0.085981235 -0.27558732 -0.22186236 0.19046126 0.3361774
-0.13150223 0.30895713 -0.36368343 -0.21619566 0.0012447761 -0.095139 -0.24918015 0.29319406
-0.25988156 0.22828642 -0.19074368 -0.15717162 -0.25531557 0.20814225 0.15950695 0.07110993
-0.3265345 0.1423941 0.273764 -0.28740013 0.30455709 -0.14922753 0.31524837 0.29132736
-0.16696009 -0.17690682 0.2285303 0.22157596 -0.2341373 -0.32781985 0.18116197 -0.13433471
0.18580946 -0.3028955 0.1447985 -0.21455821 -0.0018469583 0.07587113 0.26959527 0.18508367
0.085368626 0.026336472 0.117639385 0.27174783 0.17381415 -0.19885214 -0.260989 0.2979455
0.12903592 -0.14583722 -0.08283901 -0.25351146 -0.21507828 0.09142376 0.24289027 0.057228528
0.26597974 0.29736555 0.12188356 0.34344414 0.041637313 -0.35880685 0.2263863 -0.19763286
0.30502576 -0.21281119 0.23707363 0.16854794 0.22025304 -0.20854689 0.22625577 0.013120084
0.22169556 0.24807183 0.33156046 -0.050966997 0.25960106 0.2799459 -0.29079014 0.06295465
0.19386773 0.10405792 0.11455686 -0.22720382 0.00892392 0.16425166 -0.15041256 0.08738302
0.20565745 -0.017370613 -0.19173646 0.16644499 -0.21043313 -0.030451681 0.21267931 -0.12395869
-0.2843809 -0.029754186 0.2092161 -0.22660235 0.015631074 -0.08182131 -0.05324498 0.2913511
-0.16317935 -0.3157095 -0.20239735 -0.2402594 0.26377293 -0.02031581 -0.31974208 0.30059308
-0.31355205 -0.0780397 0.24384958 -0.2850168 0.23620489 0.20814887 0.02006128 0.0044994927
0.23317231 -0.29283905 0.15509766 0.3483416 -0.23280647 0.17613545 0.18052475 -0.15083139
0.062088244 -0.013084477 0.34840682 -0.023947487 0.042645037 -0.10170782 0.082772456 -0.19632508
-0.21063922 0.16593784 -0.26499492 0.26927146 0.050068486 0.2844888 -0.19973281 -0.27114147
0.24951528 0.053008884 -0.03488468 0.28085524 0.3211842 -0.14417744 0.19804583 0.30172133

bias f4 [400]
00000000: 9479 72bc 8e86 1abd 4eb6 02be 9c55 0bbe
00000010: d1b9 5dbe 301a 863e 388c 82be 118c 4c3e
00000020: 1a37 fabd 8b3b a83d 2b93 0ebe ce42 82be
00000030: 37bd 75bd 99eb 7dbd 9f90 58be 6dcc 953d
00000040: 8fa0 93be 8cf9 a13e 78a6 06bd 40df 1ebe
00000050: afc7 673e 010c f93b 87eb 53be 1f26 593e
00000060: 5cfc 63be 3825 b63e f76c b03d 3bc8 23be
00000070: e760 29be a713 b2be 01e0 983d 4602 963e
00000080: 9927 8fbe b436 b83c 0c4d abbe 676b 01bc
00000090: a6fc e53d 6d72 4abd afa1 5a3d edc0 42bd
000000a0: f1d5 cd3d 49df 99bd 5b5f cb3c a562 85be
000000b0: 10cd 3d3e 5830 6cbe 5be7 913e 7ecc f33d
000000c0: 4115 653d 8f0d 6ebe 9e07 8ebe e388 73bd
000000d0: fafe 503e bef1 a8be eac6 9b3e 4491 1ebc
000000e0: 0d1d b0bd d5d5 aabe 3165 d03b 3dc2 b03e
000000f0: b196 5abe 1e76 07be fe5d 70be a28b 5ebe
00000100: 7b7b af3d a8d0 0dbe 7118 a03e 0c3b 8c3d
00000110: 569e 54bd e462 33be 5e37 20be f789 57be
00000120: 32e2 b53a ba6e f9bc a92f 7c3e 22ba 50be
00000130: 3fc8 abbe 3ea6 febc 371d 92be 033f ad3e
00000140: 4865 213e 7054 313e 6845 603d 3d89 773e
00000150: 5d8e d93d 2351 d33c 0d3d abbe 36d8 a9be
00000160: 5cc6 81be 93ad adbd 0380 a13e deac 293e
00000170: 7785 b63e 23a4 61be f4f1 373e bbbc 1d3e
00000180: b22b 3dbe 60cd 9cbe e8b2 013e 6177 363e
00000190: 86ed 993e 8794 5cbe 0147 8e3e 2209 633e
000001a0: 537f a7bb b10e a73e bcd6 8f3e 9f4a 383e
000001b0: 6db5 543e 482a aebe c1e5 9a3e 369c a33d
000001c0: 2e0f 903e 0da7 b33e 31a3 2c3e 9f85 8dbe
000001d0: 9fc0 1ebe 7e82 a8be 88de 84bd 6398 4c3e
000001e0: 003c 84be dcda c23d 444f 293d 11a2 9dbe
000001f0: b488 87be bfab b53d 0e04 153e c0b6 2f3e
00000200: 64b7 06be f23c 123e d97f 313c 4e3a 553e
00000210: a455 a23e 5158 913e c411 81be 2d45 d33c
00000220: 8ec2 723d 7ec7 013d 86bd 2fbe 2ba7 abbe
00000230: 6cb3 8c3e ff19 993d 067a 88be d9d5 a7be
00000240: 1655 b43e 57e8 a43e 4926 f33d 9940 1e3e
00000250: 8779 a73e 20ff ab3d 375d 2f3d 3565 c63d
00000260: 90ed 10be 441b 373e ffdc fbbd 6269 b83d
00000270: e4fb 013d fdf4 a53e 6c91 e23d b789 fcbd
00000280: 1a9f df3d 8c6e aabb c9a4 f3bd 665a a13c
00000290: 01b0 483e 5682 4fbe dbaa 2c3e 5bf9 633c
000002a0: 3354 533d 13b3 993e a435 c3bd 32e1 6abe
000002b0: dcfc 8abe 44d1 a7be 4b99 8e3e 7ba0 7f3c
000002c0: fd8c 903e b97e b53e 91c9 95be 5e31 a0bc
000002d0: c5f9 3abe 2143 fb3d 3881 14bc 9388 153d
000002e0: edbc 95be 4be5 a33d 8e87 45be 9a23 8e3e
000002f0: 16f0 8abe be31 0a3e 6a32 a73e 379a 29be
00000300: e82f bc3c 84a7 683e cfb2 a33e fbb8 8dbe
00000310: 1d1d adbe 6484 a8bd 1c5d 9a3d d976 843e
00000320: 847b 123e e89c 05be 2714 13be fc2d 403d
00000330: 0be0 8dbd 9687 a7be 3ebe 3c3e 4904 9ebe
00000340: de01 b63e 270f bcbd 1599 e03d 0773 bbbd
00000350: 0e67 a6be 0ddd 523e 824e 2b3e dd5c a63e
00000360: 85c1 5fbe 0911 193e 7c2c 2bbe 1c94 2c3e
00000370: 2413 523e 2d62 813e d95c 413e 8917 a7be
00000380: 9d42 b0be 8706 8b3e 3c30 603e 096b 96be
00000390: 3da5 a83e 23f7 48bd 4492 b1be 7ba5 263e
000003a0: 7275 84bd ed34 b1be ce7c 4fbe 23a6 61be
000003b0: 1c86 a63e 0958 f93d e73b 6abd 141f 1fbd
000003c0: 6e94 623e f540 9d3d b3f7 913d b3c7 9c3e
000003d0: 13ea 353e 3899 913e d57a 9c3d 9dcd 60bc
000003e0: 7ce4 a03c 6cf8 e83d 3805 ccbd eead 54bd
000003f0: a4d1 11be 52b8 24be b19a d83c 671b aa3e
-0.014799494 -0.037725978 -0.12764856 -0.13606876 -0.21652915 0.26191854 -0.25497603 0.19975306
-0.12217541 0.08214482 -0.13923328 -0.25441593 -0.059994902 -0.06199226 -0.21148919 0.07314382
-0.28833434 0.31635702 -0.0328736 -0.1551485 0.22634767 0.007600308 -0.20695315 0.21205948
-0.22264236 0.3557527 0.086145334 -0.1599435 -0.16540872 -0.3478062 0.074646 0.2929861
-0.27959898 0.022487022 -0.3345722 -0.007899142 0.112298295 -0.04942553 0.05337685 -0.04754727
0.10050572 -0.075132914 0.024825742 -0.26051822 0.18535256 -0.23065317 0.28496823 0.11904238
0.055928472 -0.2324736 -0.27740186 -0.059456717 0.20409766 -0.32996935 0.30425197 -0.009678189
-0.08599291 -0.33366266 0.006359719 0.34523192 -0.21346547 -0.13228652 -0.23473355 -0.21732953
0.08568474 -0.13849127 0.31268647 0.068472 -0.051908813 -0.17518193 -0.15646121 -0.21048723
0.0013876616 -0.030448306 0.24627556 -0.20383504 -0.33551213 -0.03108513 -0.28537914 0.33837137
0.15761292 0.17317367 0.05475369 0.24173446 0.10622857 0.025795525 -0.33445016 -0.33172768
-0.2534665 -0.08480372 0.31542978 0.1656985 0.356487 -0.2203527 0.17963392 0.15404026
-0.184737 -0.3062544 0.12665904 0.17818977 0.30064029 -0.21541034 0.27788547 0.22171453
-0.005111614 0.32628396 0.28093517 0.17997216 0.20772333 -0.34016633 0.30253413 0.07988779
0.2813658 0.35088387 0.16859128 -0.27641007 -0.15503167 -0.32912058 -0.06487757 0.19980006
-0.25827026 0.095144 0.04133536 -0.3078771 -0.26471484 0.088706486 0.14552328 0.17159557
-0.13155895 0.14281061 0.010833704 0.20823023 0.31705964 0.28387693 -0.25208867 0.025789822
0.059267573 0.03168439 -0.17162141 -0.33525977 0.27480638 0.074756615 -0.26655596 -0.3278034
0.35221165 0.3220851 0.11872537 0.1545433 0.32709906 0.083982706 0.042813506 0.096872725
-0.14153123 0.17881495 -0.12298011 0.09004475 0.031734362 0.32413474 0.11062893 -0.123309545
0.10919018 -0.0052011665 -0.11896665 0.019696426 0.1959839 -0.20264563 0.16862051 0.013914431
0.05159397 0.30019435 -0.095317155 -0.22937468 -0.2714604 -0.32776845 0.27851328 0.015602226
0.28232566 0.35448244 -0.29255345 -0.01955479 -0.18259342 0.12268663 -0.009064011 0.0365072
-0.292457 0.080027185 -0.19289991 0.27761537 -0.27136296 0.13495538 0.3265565 -0.16562735
0.022972062 0.22720152 0.31972358 -0.2768019 -0.33811274 -0.082283765 0.075372905 0.25871924
0.1430493 -0.13048136 -0.14363156 0.046918854 -0.069274984 -0.3272063 0.18431947 -0.30862644
0.355483 -0.091825776 0.10966698 -0.09152799 -0.325005 0.20592137 0.16729167 0.32492724
-0.21851166 0.14947905 -0.16716188 0.16853374 0.20515114 0.25270215 0.18883075 -0.32635143
-0.34425822 0.27153417 0.218934 -0.29378536 0.32938567 -0.049063813 -0.34681904 0.16274063
-0.064677134 -0.34610692 -0.20262453 -0.22036032 0.32524192 0.121749945 -0.057186034 -0.038847998
0.22126934 0.07678405 0.07127323 0.30621108 0.17765073 0.2843721 0.07640616 -0.013720897
0.0196402 0.11375508 -0.09961933 -0.051923685 -0.14240128 -0.16085938 0.02644095 0.3322403

weight f4 [200, 400]
00000000: e880 4f3c f51f 473c 6bc5 003d 6539 1dbd
00000010: 4094 e8bc 72ce c63c 09a1 08bd ed87 66bc
00000020: 599c 303d a25c b73c a38a fdbb eab3 2dbc
00000030: e6b1 033c 4b01 06bb 3691 653c 3966 d2bb
00000040: fad9 053d 18c8 adbc 7775 84bc 92ed bc3c
00000050: 5ae9 033d 121e 11bd 1613 bc3c 0435 07bd
00000060: 6ccf be3c f8dc 2c3d 0cb8 fb3c fde3 21bd
00000070: 7323 cbbc 7686 f6bc c24e d73c ecf5 55bd
00000080: 9fe9 80bc 400c 0b3d 8be7 8f3c f84e b8bc
00000090: a8b5 c63c 7fcd fe3c df89 0a3c 83f5 e33c
000000a0: a3ce c73c e351 663b 3f72 f33a 5b06 a93c
000000b0: 9c28 8d3c 38f0 d63b c839 173c 9291 1dbd
000000c0: c6b2 5bbd 87d8 6cbc 4039 fe3c 7ca4 313c
000000d0: cedc 783c 2d27 75bc 243d 913c d6b8 0abc
000000e0: c2ae 16bb 70fe 89bb 7ba2 e3bb 4f33 403c
000000f0: 148d 67bc 20f8 56bd f073 c03c b959 323d
00000100: a28e 11bc ea07 193d cf15 fabb 508d 073d
00000110: fcd4 d13c 6518 513b 03d2 373c 71f9 9c3b
00000120: 15d5 cebc 90bc dc3c d795 923b fc4d fe3b
00000130: 4ada 8f3b ee31 93bc b42c b5bc 9373 1d3d
00000140: 578d 373c b394 efbc 8c32 14bd 183e 61bd
00000150: c516 9dbc 1c1a d1bc 2c57 21bd 09b5 84bb
00000160: aea6 3bbd 7a68 b03c 3ace 81bc 00eb bdbc
00000170: 013b 2abc a990 47bd 4e8a a9bc f6ab 863b
00000180: c2ee 0e3c 0c38 c93b f611 443c c77d 433a
00000190: a29f f9bc a7ab 9a3c 7395 2a3b 761a ca3c
000001a0: e06a dc3c 4e41 30bb 3498 2d3c 1346 33bd
000001b0: db5e 54bd 2677 21bc fa40 4dbd 3102 363d
000001c0: c5d5 73bc 13cd 7cb9 c009 76bc 628b 11bd
000001d0: 66e4 a939 ed53 04bd 5833 bb3c 5a0f 1bbd
000001e0: 78b9 193d e7a7 98bc 174f bfbc bd2f 333d
000001f0: bb96 c2bc ff03 f1bc 70e8 093c 3c77 2abc
00000200: ea8e 2dbd b4f7 06bd dce8 7d3d 1ba5 3dbd
00000210: 35c3 ad3c cc00 25bd 409f 41b9 c5bf 0fbd
00000220: 86da 233c f508 673d f2e5 2f3c 684b 543b
00000230: f02b 1dbb 68bb 35bd c647 22bd f6f9 ecbc
00000240: 8fd7 98bc 241e c53b 2d71 5a3d 7317 c83c
00000250: 9404 093d 36e3 10bd 45d9 07bd 5534 983c
00000260: 03cf 5c3c 1ef8 81bd c82b e7bc 510a 2fbc
00000270: 2967 ffbc ef64 833b 94ce 1dbc 7726 14bd
00000280: ff99 c83c 6474 76bd 219b 173d 5b40 c43c
00000290: 56ab 35bc c1b8 053b 372d 243d 168c 0dbd
000002a0: 1adf 61bc 4640 b43c c9ab 37bd 2209 44bd
000002b0: d31d b6bc 26be 8cbb 603b 7e3c 56e4 fb3b
000002c0: 1979 15bd 0ec8 a2bc 8740 363d 732b 3bbb
000002d0: 9119 403d 0529 3bbc 3908 d2bb 2da8 5abc
000002e0: 0124 39bd 1dd8 f03c 1f24 3ebd e689 4b3d
000002f0: 9295 193c 5451 2cbb 94ee fa3c 2e64 10bd
00000300: ad29 c53b 352e 2ebd 0d19 32bd bfea 523c
00000310: ea00 debb 1020 933b 796e 223c 26fe 01bb
00000320: 5799 1c3d e320 3fbc a2b6 8a3b cfc5 f13b
00000330: 9543 e73c d1d1 a73c f01b e5bb 66fe 56bc
00000340: b36e 09bd 2b29 1ebc 76a4 09bd a7da e23c
00000350: 7c1c f13c 2965 b2bb f839 543c dbf7 423c
00000360: cd63 a73b f829 153d 3946 febc 12d0 0cbd
00000370: b46a 30bd 6fe1 243c 1a4b 1a3d e7d4 193d
00000380: 4927 a73c ec12 e6ba 63a4 d93c 36f0 3a3d
00000390: 77e5 e3bc d5e4 193b deb0 2bbd 3110 4cbd
000003a0: 3967 f9bc cc7f e7bc ad88 b8bc 0404 393d
000003b0: a965 113d 5acd 51bc 340d 9c3c e58a 41bb
000003c0: a74c 2c3d c32c 07bd e2c9 06bd 09be 153d
000003d0: fe24 15bd 2b0b cfbb 9854 053d e1e8 f7bc
000003e0: a1ff 17bd 2333 e4bc 7013 0d3d bc38 afba
000003f0: 4b90 68bc cf42 333d 22d0 333d 8a0d 01bd
0.012665011 0.012153615 0.031438272 -0.038384814 -0.028391004 0.024268363 -0.0333567 -0.014070493
0.043117855 0.022383038 -0.007737474 -0.010601977 0.00803802 -0.0020447548 0.014011672 -0.0064208773
0.03267858 -0.021213576 -0.016169293 0.023062501 0.032204963 -0.035429068 0.02295832 -0.033009544
0.023292266 0.04220292 0.030727409 -0.039524067 -0.024797177 -0.030093413 0.026282672 -0.052236483
-0.0157364 0.03394723 0.017566463 -0.022498593 0.024256542 0.031103848 0.008455723 0.02782703
0.024390524 0.0035144023 0.0018573477 0.020632913 0.017231278 0.006559398 0.009230085 -0.038468905
-0.05363729 -0.014455921 0.031033158 0.010842439 0.015189363 -0.0149629535 0.01772935 -0.00846692
-0.0022992347 -0.0042112395 -0.0069468594 0.011730983 -0.014132757 -0.052482724 0.023492783 0.043542597
-0.008884104 0.037361063 -0.0076319943 0.03309375 0.025614254 0.003190541 0.011219504 0.004790478
-0.02524809 0.026945382 0.0044734287 0.0077607613 0.0043900358 -0.017968144 -0.022116043 0.0384403
0.011203132 -0.02924571 -0.036181018 -0.054990858 -0.019175896 -0.025525145 -0.039389774 -0.0040499014
-0.045813255 0.021534193 -0.015845407 -0.023183346 -0.010390044 -0.048721943 -0.020695832 0.004109855
0.0087239165 0.0061407145 0.011967173 0.0007457402 -0.030471627 0.018880678 0.002602902 0.02467082
0.02690643 -0.0026894393 0.01059537 -0.043768 -0.051848274 -0.009855067 -0.050110795 0.044435684
-0.01488251 -0.00024108989 -0.015016973 -0.035533316 0.00032404362 -0.0323066 0.022851631 -0.037856437
0.037530392 -0.01863475 -0.023353143 0.0437467 -0.023753515 -0.02942085 0.008417234 -0.010404404
-0.04237262 -0.03295107 0.06198965 -0.046300035 0.021211246 -0.040283963 -0.0001846524 -0.035094995
0.0100008305 0.056405026 0.010735976 0.0032393578 -0.0023982488 -0.044368178 -0.03961923 -0.028927784
-0.018657474 0.006015556 0.05333059 0.024425244 0.03345163 -0.035372935 -0.03316619 0.018579641
0.01347709 -0.06346153 -0.028219119 -0.010683612 -0.03117712 0.004009835 -0.009631772 -0.036169495
0.024487494 -0.060169592 0.037013177 0.023956468 -0.011088213 0.0020404311 0.040082183 -0.034557424
-0.013786102 0.022003304 -0.04484156 -0.047860272 -0.022231018 -0.0042951284 0.015517086 0.007687132
-0.03649244 -0.019870784 0.04449513 -0.0028559833 0.046899382 -0.011423354 -0.0064096716 -0.01334576
-0.04520035 0.029399926 -0.046421167 0.049692057 0.009374039 -0.0026293593 0.030631341 -0.03525179
0.006016931 -0.042524535 -0.04348092 0.012873351 -0.0067750113 0.004489906 0.009914034 -0.0019835322
0.038232174 -0.011665556 0.0042331973 0.007378317 0.028230468 0.02048579 -0.006991856 -0.013122177
-0.033552837 -0.00965337 -0.033604108 0.027692152 0.029432528 -0.005444188 0.012953274 0.011899914
0.0051083327 0.036416978 -0.031039344 -0.03437812 -0.04307051 0.010063513 0.03766928 0.037556555
0.020404475 -0.0017553247 0.026567644 0.04563924 -0.027819378 0.0023482342 -0.04191672 -0.04982013
-0.030444728 -0.02825918 -0.02252611 0.045169845 0.03549734 -0.012805307 0.019049264 -0.002953225
0.04206529 -0.033001672 -0.032907374 0.036558185 -0.03641223 -0.00631847 0.032551378 -0.030262413
-0.03710902 -0.027856415 0.034442365 -0.0013368349 -0.014194558 0.043764886 0.043899663 -0.031507052

bias f4 [200]
00000000: 18af 143c b9bb e73c 884a 80bb 244f 513d
00000010: 8589 f4bc ddb1 2f3d 51c6 01bd ebba 28bd
00000020: 24e8 26bc c218 343d 1516 ff3c 2fb8 1b3d
00000030: 31d1 3cbd 5a1b 12bd dfab 963c 934a c6ba
00000040: 7c56 f3bc baee 30bd f436 6bbc a330 2b3d
00000050: 29e0 d63c 2443 3cbd fa30 a2bc 37a2 7fbb
00000060: 0a3b 10bd 5b13 a2bb f7de 033d a6fa 32bd
00000070: a8d4 3b3d 3bde 00bd 7792 193c c0b6 c43a
00000080: e7ce 2a3d 6639 eebc 94dc 853c 0d52 353c
00000090: 46a7 10bd 460d eebc 6c96 debc 5cf5 3a3d
000000a0: 7431 1a3d 6c6a 28bd 1326 1fbb d012 8839
000000b0: 7ad1 32bd 7d0f f7bc 77f5 1e3c 4c16 2bbd
000000c0: 2f8f cd3c bc39 f2bc e2da 4dbb f2b5 10bd
000000d0: 8b9d 3b3d ef9c 7dbc 1d17 ff3c 760b b73a
000000e0: d68a 52bc 0b54 f73c 6ea1 c33c 6c38 3b3c
000000f0: ce66 46bd 914b 0c3d 92e4 b13c 4996 07bd
00000100: 3447 c13c 73c7 9b3b e78b 01bd 5b27 0abc
00000110: 4327 a83b bcb1 80bc 5347 4fbd 5198 d73c
00000120: 5584 a1bc e86a 013b 6241 e8bc 45b6 9cba
00000130: b8e1 433d 143c 033d ca9a 503b 35b3 173d
00000140: edef 2bbd 099d 3dbd dc69 3e3d 056f 02bd
00000150: 1252 333b 0052 fe3b 7d4d 843c 35fe e53c
00000160: d2ec fbbc 1f9c 113d 5410 23bc 4558 24bd
00000170: 6d61 2bbd dd88 2abd 4a2c d9bc 0a76 f6bc
00000180: 1092 fdbc d5f2 ec3c 85eb 39bd 3c29 a9bc
00000190: d03b 4a3d 9842 9a3c 0340 44bd 0d5f 84bc
000001a0: f9bd 3e3c c7e2 1cbc 9c24 2fbd bbb5 0e3d
000001b0: 3976 34bd 6002 353c 83da 173d 21d8 243d
000001c0: 442b b83c 2538 0abb f343 cabc 2aeb 213d
000001d0: 62a4 d2bc 45a4 8abc bcec 9a3c f667 d8bb
000001e0: 6287 263d 3783 3a3b e499 113d 8145 833c
000001f0: d2ab 0c3c 32ea 563b 3583 353d fdb2 bd3c
00000200: d296 233c 5d3c a7bb 70f1 453d 3335 36bd
00000210: b512 32bd 6979 cf3c fe8a 13bc fe70 8d3c
00000220: 8184 bfbb 5797 04bd 76e8 333c 08ee 4dbc
00000230: 37d7 0f3d b11f 45bc 531b 77bb 743c edbc
00000240: 90e8 3bbd a53f bf3c 9ac1 94bc 4904 37bd
00000250: c873 c33c c3b7 1bbd 82a3 64bc f3c9 e4bc
00000260: e972 f43b ede0 a1bc 7dfc 60bc dd6e 37bd
00000270: 94f8 f13a 1e68 1bbd 976b 35bc 2583 98bc
00000280: 9455 163d a500 203d 9fb6 69bc f2a5 d53b
00000290: daed 7fba 7669 7ebb 9a74 763b aefc 1b3d
000002a0: df8c 30bd b472 a13c 923d fc3c 2009 033d
000002b0: 206b 263d c16c d7bc 5f38 b23a df37 8b3c
000002c0: 0429 3ebc 33f5 183d f76b c13a 2a82 1bbd
000002d0: be35 68bc 8998 41bc de27 f73b ca41 3a3d
000002e0: 64aa 323d 9cff 30bd 548f fc3b a33c 133d
000002f0: 3022 cd3c 29e2 45bd d5ac 4a3d 7ba6 45bd
00000300: eb62 02bd dace 85ba 3ab3 bd3c 9b81 043d
00000310: 31dc 0e3d e33f 10bd 301c 993c 477d 0dbd
0.009074949 0.028287755 -0.003915135 0.051100865 -0.02985073 0.042894233 -0.03168327 -0.041193884
-0.010187183 0.043968923 0.03113846 0.038017448 -0.046097938 -0.035670616 0.018392501 -0.0015128426
-0.029704325 -0.043196417 -0.014356364 0.04179443 0.026229935 -0.045962468 -0.019798744 -0.00390066
-0.035212554 -0.004946155 0.032195058 -0.04369607 0.0458571 -0.031461935 0.009373299 0.0015008077
0.041701224 -0.029080104 0.016340531 0.011066926 -0.035315774 -0.029059064 -0.027171336 0.04564415
0.03764482 -0.041117117 -0.0024284169 0.00025953958 -0.043656804 -0.030158753 0.009702078 -0.04176931
0.02509269 -0.029568546 -0.0031410982 -0.035329767 0.04580454 -0.01547931 0.031138951 0.0013965208
-0.012850484 0.030191442 0.023880687 0.011427026 -0.048437886 0.034251753 0.021715436 -0.033102307
0.023593523 0.004754001 -0.031627562 -0.008432235 0.0051316335 -0.01570975 -0.05060513 0.026317747
-0.019716421 0.001974756 -0.02835149 -0.0011956176 0.047822684 0.032039717 0.0031830543 0.03703614
-0.041976858 -0.04629234 0.046487674 -0.031844158 0.002736215 0.00776124 0.01615023 0.028075317
-0.030752573 0.03554928 -0.009952623 -0.040123243 -0.04184096 -0.04163443 -0.026510376 -0.030085582
-0.030953437 0.028924385 -0.045390625 -0.020649545 0.049373448 0.018830582 -0.04791261 -0.016158605
0.011641973 -0.009575552 -0.042759523 0.03484128 -0.04405806 0.0110479295 0.037073623 0.04024518
0.022481568 -0.0021090594 -0.024690604 0.03953091 -0.02571315 -0.016924033 0.018911712 -0.00660419
0.040656455 0.0028459558 0.035547152 0.016024353 0.008585887 0.00327934 0.044314582 0.023156637
0.009984689 -0.0051036314 0.048325956 -0.04448433 -0.04347487 0.025326448 -0.009005306 0.017265793
-0.005844653 -0.03237089 0.010980716 -0.012568958 0.035117354 -0.012031482 -0.0037705495 -0.02895949
-0.045876086 0.023345778 -0.018158723 -0.04468182 0.02385892 -0.038017046 -0.013954999 -0.027928328
0.0074599874 -0.019760573 -0.013732073 -0.04478346 0.0018460923 -0.03794109 -0.011073015 -0.018617222
0.036702707 0.039063115 -0.014264732 0.0065200264 -0.00097629207 -0.0038820184 0.003760612 0.03808277
-0.043103095 0.019708015 0.030791078 0.031991124 0.040629506 -0.026296975 0.0013597122 0.016994415
-0.011606459 0.037343215 0.0014756907 -0.03796593 -0.014172969 -0.011816152 0.0075425943 0.045472898
0.04361953 -0.043212518 0.0077075157 0.0359465 0.025040716 -0.048311386 0.04948123 -0.04825447
-0.031832617 -0.0010208741 0.023156751 0.032350164 0.03487796 -0.035217177 0.018690199 -0.034543302

weight f4 [200, 400]
00000000: 9c31 7bbc 8007 fcbc 9db6 34bd ed06 26bc
00000010: 3fd4 13ba 98f7 103d 0eea e1bc 9269 8c3c
00000020: 7713 2fbc 8337 d03c accd 2e3d 1499 473d
00000030: 57b7 ac3c c0d2 de3a 9518 133c 00c3 f93b
00000040: a5cc 10bd a270 dc3c 003d 6e3c 3d74 803a
00000050: 2f46 ac3b 3c0e a63c ef67 cbba 295b 933c
00000060: 658f 48bc 4b23 003c 1398 cd3c e9e5 dbbc
00000070: 3b5d ae3c 680a 2e3d bb21 3f3d 52d6 e0bc
00000080: 3dd8 06bd a7af fc3c 6253 2b3d d742 373d
00000090: e073 1a3d 9992 fc3c 81d1 d03c 1b7d e13c
000000a0: 6f74 5a3c 92a1 23bd ecd4 08bc 6c40 153d
000000b0: 45b6 e83c d195 be3c c459 73bb ac1d 97bb
000000c0: 6525 e0bc 7b85 393d a745 17bd fda8 763a
000000d0: 930c 0dbd db36 90bc e396 c73b 6aac 0bbd
000000e0: a31d 013d ac0a 183d 6f8c 223d 6b6a a73a
000000f0: 08f4 173c 8f8d 2cbc 09b9 4e3c de01 673c
00000100: 3489 debc ec88 8a3c 4345 8fbb 4ec5 173d
00000110: 70e3 82bc aec8 fbbc 3a92 eabc 154f 18bd
00000120: 552b b93c eb99 95bb f7ef 043d 4a6c 9ebc
00000130: 3f81 37bd 6bfd 6d3d 123f 703c bea9 d4bc
00000140: aa8d 5b3d 1a86 24bc 0d4b ac3c b5a1 c83c
00000150: cbd5 5c3d a43b f63b 8219 87bb b71c 5e3c
00000160: 6647 383d 75ad f2bb 97b5 243d e450 c4bb
00000170: 14cb e03c 79cd e3bb e8ed 1dbd 565a b5bc
00000180: a6de 71bc 56b1 1d3b 2186 3a3d 7870 b8bc
00000190: eb45 09bb f442 8dbc 091c 07bd 06b5 1fbd
000001a0: ec5e a53a cb14 1d3d 1f23 1abd b3f2 b7bb
000001b0: 897f f6bb 3abb 763b e50d 773c 273f 133d
000001c0: dfd5 253d c483 a83b 0e57 aebc f6ae ec3c
000001d0: 3c30 b3bc f49b abbc ed35 893c 261d 02bb
000001e0: 76e9 143d 8021 efbc 03d9 c4bc 7408 34bd
000001f0: 1d5f 173d ce87 943c e6cf 303d 0611 b13c
00000200: 36b7 16bc de97 c93c 71ee 0b3d 91d6 26bd
00000210: 2a91 7f3c 3051 20bc a6d7 98bc 4e1b 06bc
00000220: 170f 2c3d e6fa a23c 1215 d73c 0bd7 02ba
00000230: 0226 0cbc 72f1 b23c 1acd 543d 0efe 5e3c
00000240: 63df 863c 0512 1e3d 9ee3 96bc cef6 4a3d
00000250: 374d 653d 9a1c 1f3d ca43 f9bc 0a16 263d
00000260: d672 e5bb 062a 0bbd 46f1 8cbc 882e 45bc
00000270: ef46 243d 629b 9a3b 390b f1bc 95f4 f83b
00000280: 8b07 363d 3aae 073d 3865 f83b c097 21bd
00000290: b384 143c 3849 1cbc 4f28 273d 83f6 31bd
000002a0: b227 96bc 1369 4f3d bd76 ec3c bec0 e03c
000002b0: ac79 bdbc aeb7 0bbd f19b 10bd 22c0 6d3d
000002c0: 79f3 0dbc 46e7 d2bc f18f 86bc 5510 00bd
000002d0: 6cbc 30bd 309e 203d c528 1e3c bcd2 f5bc
000002e0: 33fa 303c abf2 10bd a317 77bc b388 5b3d
000002f0: 6139 293d cf80 323d a735 9dbc 368a 1d3d
00000300: 3910 583c c159 06bd 1dd6 6abc 12d7 973c
00000310: 0e1b 71bc cb8b 9cbc b653 e6bb 48d7 63bc
00000320: 8555 2ebb 7397 d5bc 1bab 0a3d a8ed 353d
00000330: 8c93 103d 5ee9 333d 736b d23c fdc7 3e3d
00000340: 4af7 84bc f844 2cbd 5138 363d 9baa 4f3d
00000350: e7e7 2b3c 22e6 02bd 550c 9d3c 9e41 a0bc
00000360: be67 3fbd 85a0 e53c 67a6 463d be09 fc39
00000370: ecbe 173c 7ee2 4e3d ad70 1d3d 711b 12bc
00000380: e836 313d 7155 633d 3aba 4d3d e14b 15bd
00000390: 7ec5 f33c 94fb 23bd 279d 9cbc 84eb 1ebc
000003a0: e3da c73c 8cdb 203d 3a53 003c 3529 fbbc
000003b0: 2a83 4a3d 10d0 ccbc 72a3 a7bb fffb f53c
000003c0: ef73 1ebd 2371 75bc f5b2 ad3c 0a0f 5ebb
000003d0: 473e 7ebb 9ed9 cb3c 2d12 1f3d 7529 ad3c
000003e0: 87fa d63c 6f81 c5bc 8b4b 58bc e2f2 3f3c
000003f0: f5e4 093d 3715 c23b 3302 933c 3c2b 413d
-0.015331652 -0.030765295 -0.044119466 -0.010133487 -0.0005639232 0.035392374 -0.027577426 0.017140184
-0.010685793 0.025417095 0.042676613 0.04872997 0.021083517 0.0017000064 0.008978029 0.0076221228
-0.035351414 0.026909176 0.014540911 0.0009800267 0.00525739 0.02027046 -0.0015518646 0.017987804
-0.012241219 0.0078209145 0.025096929 -0.026843028 0.02128469 0.042490393 0.046663027 -0.027445946
-0.032921065 0.030845476 0.041827567 0.044741478 0.037708163 0.030831622 0.025490524 0.027525475
0.013333424 -0.039949007 -0.008351546 0.03643839 0.028407225 0.023264797 -0.0037132362 -0.0046116915
-0.027361581 0.045293313 -0.03693166 0.00094093365 -0.03443582 -0.017604282 0.006090985 -0.034099974
0.031522404 0.037119552 0.03968471 0.0012772804 0.00927449 -0.010531797 0.012617358 0.014099566
-0.027165033 0.016910993 -0.0043722703 0.0370534 -0.015977591 -0.03073534 -0.02863418 -0.037184794
0.02260367 -0.0045654676 0.03245541 -0.019338746 -0.044800993 0.058103006 0.014663475 -0.025959846
0.0536019 -0.010041738 0.02103188 0.02449117 0.053914826 0.007514434 -0.004122914 0.013556651
0.044989966 -0.0074059316 0.04021224 -0.005991088 0.027440585 -0.0069519845 -0.038556963 -0.022137802
-0.014762556 0.0024062 0.04553807 -0.022514567 -0.0020946215 -0.01724384 -0.03298572 -0.038990997
0.001261679 0.038349908 -0.03763115 -0.005613649 -0.0075225276 0.0037648217 0.015078996 0.0359489
0.040487166 0.005142661 -0.021281745 0.028892022 -0.021873586 -0.020948388 0.016749347 -0.00198538
0.03635546 -0.029190779 -0.02402926 -0.043953374 0.03695594 0.018131163 0.043167017 0.021614563
-0.009198954 0.024608549 0.034162942 -0.04073197 0.015598575 -0.009784982 -0.018657517 -0.008185221
0.04200658 0.019895028 0.026255164 -0.00049911503 -0.008553984 0.021843646 0.051953413 0.013610376
0.016463941 0.038591404 -0.018419083 0.049551778 0.05598184 0.038845636 -0.030427832 0.04054836
-0.007002215 -0.033975624 -0.017204892 -0.01203502 0.04010671 0.00471823 -0.029424297 0.007597516
0.044440787 0.03312514 0.0075804256 -0.03945136 0.009064841 -0.009538941 0.040809926 -0.043447983
-0.018329475 0.050637316 0.028865213 0.027435657 -0.023129307 -0.034110717 -0.035304967 0.05804456
-0.008664005 -0.025745045 -0.016426058 -0.031265575 -0.043148443 0.03921336 0.009653275 -0.030007713
0.01080184 -0.035387676 -0.015081319 0.053597163 0.041314486 0.043579873 -0.019190622 0.038461886
0.0131874615 -0.03280044 -0.014333275 0.01853517 -0.014715923 -0.019109627 -0.007029022 -0.0139063075
-0.0026601267 -0.026073193 0.033854585 0.0444161 0.03529696 0.04392373 0.025686001 0.046577442
-0.016231198 -0.04205796 0.0444873 0.05069981 0.010492302 -0.031957753 0.01917092 -0.019562539
-0.046729796 0.028030643 0.048498537 0.00048072444 0.009261828 0.05050897 0.038437534 -0.008917675
0.043265253 0.055501405 0.050226428 -0.036449317 0.029757258 -0.040034845 -0.019117905 -0.009699706
0.024396366 0.039271876 0.007832343 -0.030659297 0.049441494 -0.025001556 -0.0051159197 0.030027388
-0.03868478 -0.014980587 0.021203497 -0.0033883476 -0.0038794444 0.024884041 0.038835693 0.021137932
0.026242508 -0.02410957 -0.013201605 0.011715623 0.033665616 0.005922939 0.017945385 0.047160372

bias f4 [200]
00000000: ee53 bfbc 8e2a 693c cf39 043d bf6b 45bd
00000010: ff78 e43b c774 a2bc da37 af3c e3d6 d33c
00000020: 9c93 55bc e51f 2b3c a721 eb3c 0bdd f2bc
00000030: 83c7 71bd 1932 28bd 00b4 15bc 1bb2 d6bc
00000040: 35ea 483d 81cc 08bd c50d 173d 849c 0dbd
00000050: 1709 683d a790 b23b c96b 1abd 0f27 bb3c
00000060: ea34 3abd ff58 8f3c b1f8 0f3d e56c 1ebd
00000070: 380e 993b 83a5 cf3b 06be 363d b252 a23c
00000080: 9a8f 323c 0572 42bd 6261 f43b 63f7 ffbc
00000090: 6493 64bc 5339 28bd 813e 0abd 5f3f c9bb
000000a0: ede3 05bc 9960 033d 5fbf 3b3d 7040 3d3c
000000b0: 22ce 00bd a54a 253b 8ddd 2dbb 6cbd 2bbd
000000c0: d12b a13a dc3c d13c 1596 f73c 1768 81bc
000000d0: 39f6 d83c 9fa4 31bc 5b21 fbbc d8f6 e73c
000000e0: c865 21bd 76e0 9536 49da 9f3c f3b7 10bd
000000f0: da91 29bd 31f0 18bd eaa4 0d3d 230a 373d
00000100: b7fe 34bd db0d 313c f5e3 43bd cf60 f33c
00000110: 4801 15bd 6459 63bd 5fa1 8ebc 008e 46bc
00000120: b8b4 18bd 0046 503d 36ab 303c bd11 7a3d
00000130: 1369 1c3c 73df 853c 7220 d0bc 5794 463d
00000140: 7efb 183a 92b2 e73c 33d1 5f3d 971d 82bc
00000150: 769f ebbc 0763 76bd f7de 53bd ba33 16bd
00000160: 6fd5 a23c f1de c5bc 1f8f 64bc 213d 063d
00000170: 272f f2ba e746 4d3c e71b febb 610e de3c
00000180: 5444 bcbc f905 693d 5385 053d 5508 a23b
00000190: 0c72 7ebb bd7f 793c e786 f3bc 45af 313d
000001a0: 5eb3 143d 9b11 f03b 0f21 4bbc 8d3e 9d3b
000001b0: c970 b93b e279 40bd 9ed8 ea3c 7254 6a3c
000001c0: 64ac 9c3b 24dd 8dbb 6e17 fabc 069e 7b3c
000001d0: 019a e13c 6fb1 0cbd f81f 6538 13e1 2ebd
000001e0: bce0 0abc cd2d 593c 3cbe 1d3c 4879 02bd
000001f0: 3e5c 1bbc 4091 7c3c d6a2 043d dd1a 06bd
00000200: 67eb 63bd 53d3 95bc 0903 ec3c 57a2 0cbd
00000210: 9a6f 923c e7b6 58bd e3e6 893c 7fc6 d0bb
00000220: e429 563c ba60 6dbc 0b6f 83bc 689c 7dbd
00000230: 3401 73bd fb2c fcbc b5e2 003d 4aa2 29bd
00000240: 5c1f 013d d5ed 293c cc2b bcbc aee6 0a3d
00000250: a091 d9bc 2587 363c 33c1 51bc 1c85 2d3d
00000260: e627 033b 6995 55bb 698c 36bd bfe3 4c3b
00000270: fd2f 7cbd 7814 f73c 6c30 06bd 6fe4 42bd
00000280: 9ddf 2d3c 1809 f4ba 0ccb 68bc 726c 853c
00000290: fb85 d53c 05f6 fdbb b450 b5bb 58bf db3b
000002a0: fa2b 43bc de29 27bd ad31 243c 6f90 213d
000002b0: 1688 233c f9b6 183b e884 ca3c c170 0b3d
000002c0: 2b5f 633d cad3 803c f8a5 f73b 9e4a 34bd
000002d0: efe3 0b3c f5cc 2b3d 9105 573c 7c7d 4cbc
000002e0: 8e4a 1dbd d6b3 f93b cc9b b4bc 13df ad3c
000002f0: b428 15bb f772 0abb 2fbc 65bd 53f7 f8bc
00000300: 19fc b8bc 5590 3b3c b1cb 64bc db72 a0bc
00000310: 4d96 1dbd 6efa 1fbd 79fb fc3c 70fa c7bb
-0.02335545 0.014231337 0.032281693 -0.048198458 0.0069724317 -0.019831074 0.021388937 0.025859302
-0.013035681 0.010444616 0.02870257 -0.029646417 -0.05902816 -0.0410634 -0.009137154 -0.026207974
0.049051482 -0.033398155 0.036878366 -0.034573093 0.056649294 0.005449373 -0.03770045 0.022845773
-0.04546062 0.017498491 0.03514928 -0.03867807 0.0046708845 0.006336869 0.044614814 0.019814823
0.010898495 -0.04747202 0.007457898 -0.031245893 -0.013951156 -0.041070294 -0.033751015 -0.0061415876
-0.0081720175 0.032074545 0.045836803 0.011551008 -0.031446584 0.0025221494 -0.002652976 -0.041928694
0.0012296384 0.025541715 0.030222932 -0.015796704 0.026484596 -0.010842471 -0.030655554 0.028315946
-0.039403707 4.4666767e-06 0.019513266 -0.035331678 -0.04139886 -0.03733844 0.034581102 0.0446874
-0.044188228 0.010806526 -0.04782482 0.029709248 -0.036378175 -0.05550517 -0.017410932 -0.012118816
-0.03728172 0.050848007 0.010783007 0.061052073 0.009546536 0.0163419 -0.025406096 0.04848131
0.0005835815 0.028283391 0.054642867 -0.01588325 -0.02876256 -0.060153034 -0.051726308 -0.036670424
0.019877164 -0.024154158 -0.013950138 0.03277314 -0.0018477187 0.0125291115 -0.007754791 0.027106466
-0.0229818 0.05689046 0.03259785 0.004944841 -0.0038825301 0.015228209 -0.029727412 0.04338004
0.03630387 0.0073263175 -0.0123980185 0.0047987164 0.005659197 -0.046991237 0.028667744 0.01430236
0.0047812928 -0.0043293405 -0.03052875 0.0153575 0.027539255 -0.0343489 5.4627628e-05 -0.042695116
-0.008476432 0.013255549 0.009627875 -0.031853944 -0.0094824415 0.01541549 0.032381855 -0.032740463
-0.05564442 -0.018289244 0.028810041 -0.034334507 0.017875481 -0.052908804 0.016833728 -0.006371319
0.013071511 -0.014488393 -0.01604416 -0.06191674 -0.05932732 -0.030783167 0.031466205 -0.041414537
0.031524047 0.010371645 -0.022970103 0.0339114 -0.026558697 0.011140619 -0.01280241 0.04236327
0.0020012795 -0.0032590276 -0.0445675 0.0031263677 -0.061569203 0.030161127 -0.032761022 -0.047581133
0.010612396 -0.0018618433 -0.014208566 0.016287062 0.026064863 -0.007750275 -0.005533302 0.0067061596
-0.01191234 -0.040811412 0.010021609 0.039444383 0.009981176 0.002330242 0.024721578 0.034043077
0.05551068 0.015725989 0.007557627 -0.044016473 0.00853823 0.04194351 0.013123886 -0.01248109
-0.03840118 0.007620315 -0.022046946 0.021224534 -0.0022759857 -0.0021125653 -0.05608767 -0.03039137
-0.022581147 0.011447986 -0.013964579 -0.019586017 -0.038473416 -0.039057188 0.03088163 -0.0061028525

weight f4 [2, 200]
00000000: 74ec 1a3b bd52 bf3c 691e 613d d3cd 7f3b
00000010: edca 243d 9795 5ebc fb74 553d 4c38 cbbc
00000020: a508 80bd 8acf a43d 64cb c03c 935e 933d
00000030: 3d9b 60bd 98bc 09bd c41f f9bc c6d7 c2bc
00000040: a88e c63c 1cb1 b6bc 41d3 cdbc 66ca 14bd
00000050: df5c 343d f8f8 243d 2c47 9a3d 5122 4ebd
00000060: cb70 373d dd3c d9bc bb9a e43a ef23 3abd
00000070: 014a fa3c 249b 7d3d 7698 20bd 6e01 543d
00000080: 37c8 5d3c 3471 9bbd a340 94bd 2bac 66bc
00000090: e350 79bd 20c4 62bd a8f3 d1bc 41e8 e93c
000000a0: a908 77bd b518 b1bd 96db d13b 59e0 40bd
000000b0: 8dcd f03c c022 303d 4f0b ea3c 65b7 383c
000000c0: 4021 4a3d c4e7 a33b 9861 613d fdf3 ea3a
000000d0: 61ac 5e3c 83d8 483d 43a1 47bd 4e65 4ebd
000000e0: 05e3 a5bb f7b6 073c 9b7d 4f3d de52 463d
000000f0: e069 87bd 859a 01bd 1d14 e9bb 4fb5 05bc
00000100: 75b0 263c 7e7b 583d 06cd d6bc 3c3d b3bc
00000110: 6538 e4bc fdab 76bb 79f5 60bd b482 b73b
00000120: 193d 9f3d 318d a0bd c0d7 9b3d 4222 e6bb
00000130: 5ab3 59bc 77e5 82bc 4463 99bc 57be 393d
00000140: b2ac 53bd 2bba 903d 9ed2 52bd 56c9 06bd
00000150: ab65 8e3c 97e8 6cbd ed20 5bbc 05be a63c
00000160: cf94 4b3d ddec 183c 3cf6 913d 7296 f4bc
00000170: e8b4 c5bc 851a 1dbd 35c8 383d c578 3abb
00000180: 4456 7fbd dfec 913d d1a7 88bc 7dcc 3dbd
00000190: 1281 2d3d 341a 9b3d 6056 643d 70c4 643d
000001a0: f77c cfbc c072 87bd e5f2 6fbc bfb0 57bc
000001b0: c4f3 abbd 0014 743d 5a5d 633d 5ed6 5cbd
000001c0: 09ca 7fbc 91dd aabc 42d0 723d 3d8d 7f3a
000001d0: a50a 6f3d b8f7 273d 1504 19bc 20b4 a53c
000001e0: db79 913d 29d3 363d ef5a 653d 6d4c 83bd
000001f0: 3039 9d3c 64c4 563d ffa5 20bd fec8 62bd
00000200: 123d 673d 2a94 83bd 7b49 15bc 4942 ea3a
00000210: 8a53 533d 5337 513d 9200 7cbd 3361 ea3c
00000220: de48 b0bd 3c99 5bbd eea5 3f3d 15e2 28bd
00000230: 67ff 30bd d495 1dbd 0e4b 91bd 4bc9 00bd
00000240: 55d6 243d ea6d 84bd 653f 5a3d 84de 4b3d
00000250: 19a0 773d 5e43 89bd 3fac 7d3d 3967 953c
00000260: 1469 503d 485e c03c b9c5 6dbc 6fcd 8dbc
00000270: a39d 043d 15bc 70bd d31f 953c 8e58 223d
00000280: 3a89 b53c e84d 67bd 66f9 47bd a44c 5e3d
00000290: 1631 27bd 39e5 81bd 18d8 02bd f9b2 8abd
000002a0: 2de8 633d cc98 a2bd 3976 82bd d272 2fbd
000002b0: 98e3 95bc 9485 463d 8d51 a6bc b77e 4abd
000002c0: f7b3 833d 1104 923d 2efc e73c 772f 1c3d
000002d0: 12e9 4fbb 8904 323c d593 55bc 948a 903c
000002e0: 1849 aabd 2998 853b 3662 843b 5208 f5bb
000002f0: f788 f03c e42b 9a3c 0bc9 c43c b47c 363c
00000300: b1a3 3ebd 4f9d 7a3b 72d7 483c 684e e03c
00000310: af3b c6bc 6f04 b7bc d203 bbbc 04a3 593d
00000320: 6182 63bd 4ef2 9f3d b047 83bc 394b d93c
00000330: 3cd1 f5bc 7667 bcbc 80ca 97bd 5eef 973d
00000340: f2eb 863d b054 03bd 6797 df3c 0b61 55bb
00000350: ecb0 42bd a7df 2dbd 4040 11bd 2424 923c
00000360: 8e05 ee3c c5ca 8d3c 5132 35bd 6a1b 8e3d
00000370: 2598 00bd 3881 95bd b3ac 2bbd bde7 ebbc
00000380: 7ffc 1d3d e7d5 d43c a583 89bd 9fe3 4f3d
00000390: 305d 733c 24b4 8cbd 8cd3 45bd a4b5 443d
000003a0: 1bca 063d 63a3 84bd ca2a 71bd e9b0 b53b
000003b0: b36e c93c 1a20 9ebc 1739 56bd cefb ddbc
000003c0: 5bbe 553d 5637 963d f1b8 713d bbc9 8c3d
000003d0: 2fcd df3a 099d a63d 2015 833d a09e 80bc
000003e0: 2eab 41bd c8e8 41bd 9683 7e3d 51f4 303d
000003f0: fe41 13bd d4d0 a43b 586b a7bd d915 ffbc
0.0023639472 0.023354882 0.054960642 0.0039032593 0.040232588 -0.01358547 0.052113514 -0.024807118
-0.06251649 0.080473974 0.023534484 0.07195773 -0.054835547 -0.033627123 -0.030410655 -0.02378453
0.024237946 -0.02230125 -0.025125148 -0.036325835 0.04403388 0.040276498 0.07533106 -0.050325695
0.044785302 -0.02651828 0.0017441133 -0.045444425 0.030552866 0.06191553 -0.039207898 0.051759176
0.0135365045 -0.07589951 -0.07238891 -0.014079134 -0.060868155 -0.05536282 -0.02562888 0.02855313
-0.060310993 -0.086472906 0.0064043505 -0.047088955 0.02939489 0.04300189 0.028569845 0.011274193
0.049348116 0.005001994 0.055024713 0.0017925497 0.013590903 0.049034607 -0.048737776 -0.05038958
-0.005062463 0.008283368 0.050656896 0.048418872 -0.06611991 -0.031641502 -0.0071129934 -0.008160903
0.010173907 0.052852146 -0.02622081 -0.021879785 -0.027858922 -0.0037639134 -0.0549216 0.005600298
0.07775325 -0.0783943 0.076095104 -0.007023127 -0.01328739 -0.015978558 -0.018724091 0.045347538
-0.051678367 0.07066759 -0.05147039 -0.032906853 0.017382463 -0.057839002 -0.013374549 0.02035428
0.04970246 0.009333816 0.071270436 -0.029856894 -0.024134114 -0.03835537 0.045112807 -0.0028453332
-0.06233813 0.07125258 -0.016681584 -0.046337593 0.04235942 0.07573357 0.055746436 0.0558514
-0.025328143 -0.06613684 -0.014645313 -0.013164698 -0.08396104 0.059589386 0.05550895 -0.053915374
-0.015612134 -0.020857604 0.05928064 0.0009748524 0.05835976 0.041007727 -0.009339352 0.020227492
0.0710332 0.04463497 0.055994924 -0.064110614 0.019192308 0.052433386 -0.039220806 -0.055367462
0.056454726 -0.064247444 -0.009111757 0.0017872538 0.05159334 0.051078152 -0.06152398 0.028610801
-0.08607648 -0.053612933 0.046789102 -0.041231234 -0.04321232 -0.038472965 -0.07094394 -0.031441968
0.040243465 -0.06466277 0.053283114 0.049772754 0.060455415 -0.067023024 0.061931845 0.018237697
0.05088146 0.023482457 -0.014512473 -0.017309872 0.032376897 -0.05877312 0.018203652 0.039635234
0.022160161 -0.05647078 -0.04882183 0.05427231 -0.040818296 -0.06342549 -0.031944364 -0.067724176
0.055641342 -0.079393 -0.063702054 -0.04283411 -0.018297002 0.048467234 -0.020302558 -0.04943725
0.0643081 0.07129682 0.02831849 0.038131204 -0.0031724614 0.010865339 -0.013035734 0.017644204
-0.08314723 0.004076977 0.004040028 -0.0074777985 0.029362185 0.018819757 0.024021646 0.01113813
-0.046542827 0.0038240736 0.012258397 0.027381137 -0.024198381 -0.022340981 -0.02282897 0.05313398
-0.05554426 0.07809888 -0.016025394 0.026525127 -0.030006997 -0.022998553 -0.07411671 0.074187025
0.06587972 -0.032063186 0.027293874 -0.0032559063 -0.047532007 -0.04244962 -0.035461664 0.017839499
0.029055383 0.017308602 -0.04423744 0.069388226 -0.031395096 -0.07300037 -0.041912746 -0.028797025
0.038570877 0.025980903 -0.06714562 0.050754186 0.014853761 -0.068702966 -0.04829745 0.04802479
0.032907587 -0.06476476 -0.058878697 0.005544771 0.024588918 -0.019302417 -0.05230054 -0.027097609
0.05218349 0.07334773 0.059014264 0.068744145 0.0017074699 0.08135421 0.06400514 -0.015700638
-0.04728239 -0.047341138 0.06213721 0.04320175 -0.035951607 0.005029777 -0.08174771 -0.031138347

bias f4 [2]
00000000: abea 933d b5a9 7fba
0.07222494 -0.00097527663

weight f4 [2, 200]
00000000: b842 97bc 8458 62bd 5118 75bd ca1e 6c3d
00000010: b656 4bbd 8006 05bd 866a 073d e216 99bd
00000020: a5d1 6d3d bff9 d6bc ad3b 73bd 4546 6dbd
00000030: 0b2f 1e3d b555 2cbc 7ce6 013b 7b16 1a3d
00000040: 34f3 76bd d9f0 1b3d 0d24 b939 d9a4 6abd
00000050: 622a c7bc a61c 06bc f68d 7bbc e53b 35bd
00000060: e28d d73c 18cf 4ebd 286c 94bd 9360 2f3c
00000070: 7b04 8bbd d561 7dbc 9efd 373c 07e9 91bd
00000080: 700d 2dbc 249b 543d e2a2 b4bc 0c5e 143b
00000090: d23f 0cbc 2f88 cf3c 6fb1 093d d7ac cd3c
000000a0: b15c a33c 72dd 9fbd a350 7fbd ad3e 043d
000000b0: 5365 8bbc 3f34 7bbd 1c01 c6bc 7d21 793d
000000c0: e232 663c e63a 583d 3b01 06bd 5ec7 95bc
000000d0: 26e8 263c 7d60 23bd 7b2f 213a 2652 7b3d
000000e0: 065e a43b 8057 e23c 4f3d 83bd e2a7 753d
000000f0: ebf2 7e3d 429f 1cbd 547c a43c 860f 8bbd
00000100: bc35 4bbd 2864 7b3d 6337 573d 4bf9 75bd
00000110: 76aa 063d 4f7a ff3c 2f8b b8bc 8a8b 81bd
00000120: 1c79 2bbd 53df 98bd 2f8c 8fbc d798 9ebd
00000130: 12b8 0e3c 042d 263c 17d8 65bc 514b 27bd
00000140: c23c 0c3c 42c2 98bd e230 8cbd 95bf 683d
00000150: 493c 863d 7a04 093d 5e42 8b3d e80f b5bc
00000160: 5742 123d 045e 0b3d a763 483d 1bd0 fcbc
00000170: 1895 2ebd 8177 8ebd 137c 17bd 6087 5fbd
00000180: 33c5 323d ab17 53bc cf50 ff3b 2588 0fbc
00000190: a410 86bd 8f5d 403b 52b9 c63c 9817 8abd
000001a0: 7244 203d 7804 753d 37f3 003d 0860 753d
000001b0: 9a8d 163d 13bb 0e3d 71bc 223d c4a5 83bd
000001c0: 6bd6 883c e86a 4bbc cd56 c2bc a35b 903d
000001d0: 5bdb 643d 7276 893d cc88 3a3d 81c2 a2b9
000001e0: 2fe7 5abd aaca 503d 1171 943d 4bb9 3e3d
000001f0: 1f72 3ebc 11d7 9cbd 5da2 2cbd fe59 2a3c
00000200: 76f1 f13c c945 ebba 5143 4abd 3f1c 0fbd
00000210: 4470 6c3c bb1c 2d3d 5109 9bbd 8386 9d3d
00000220: fbaf 293b 1494 fc3c 24b9 efbc 9a86 703d
00000230: 8936 093d 800d 64bd 8c35 b2bc f871 22bd
00000240: 2560 8bbc 4b9c 73bd 44da ce3c d184 4cbd
00000250: 262e 8b3d 8aee 5bbd f8b0 7e3d ea5e 9fbd
00000260: 1624 913d d894 8f3d 37f4 8b3d 42c9 8d3d
00000270: c236 273d 610c aebc 3093 c33c b842 94bb
00000280: 555c db3b d8c5 4dba 04a3 943d 6881 22bd
00000290: 4abe 623d 7324 a53d c4cd 863b b302 99bd
000002a0: a388 a1bd dcb4 cc3c 7796 7fbd dc93 03bc
000002b0: 2dd9 713b e5df fb3c 9da2 7fbd 7557 9a3d
000002c0: fefe 09bd 82bf 23bc 780e 8abd 7e02 cabc
000002d0: 610c 0f3c 77dd bdbb 4201 ab3c 2282 4c3d
000002e0: 6e5a 32bc 82cb 293d 2508 113d 0237 e4bc
000002f0: 9b2c 413d 9a3e 873d 6f55 c23c e3e0 833d
00000300: 54a8 bebc e286 87bd aff7 23bc f7d5 493c
00000310: f959 7dbd 0092 33bd 4552 263d e1ae 96bd
00000320: 3405 00bc cc46 34bc 1382 5a3d 548c 663d
00000330: 71a6 17bd 0956 83bd 6486 3b3d 3dde bd3b
00000340: 4438 5b3d 823a 9c3d 29f5 89bd edd2 033d
00000350: 9c03 983d 6447 6cbb 2af8 25bd d00f 393c
00000360: 179c 183c f4c9 373d 8a17 00bd c2d3 143b
00000370: efb3 89bd 3067 293d 9d37 903c 9f27 91bd
00000380: e7ed 313d 2135 02bb b528 87bd c300 99bd
00000390: 8928 47bd c60c 333d 202e a9bb 14dd a0bc
000003a0: 2b42 a2bd 110e 27bc 0322 103d afb4 39bd
000003b0: fe4d 9a3d 101c 5c3d 2d79 aa3c dfc3 023d
000003c0: f155 d5bc 0ca0 24bd db97 8c3d 37c6 15bc
000003d0: eff6 80bd cae1 96bd e0d8 7bbd 09da 3dbc
000003e0: 5d9d 9f3d 9b62 603d d989 013c 859a 5f3d
000003f0: 8c2b 2d3d 3409 8a3d e12c 52bd ffd9 c63c
-0.018464431 -0.055260196 -0.059837643 0.05764655 -0.04964324 -0.032476902 0.033060573 -0.07475068
0.05806126 -0.026242135 -0.059383083 -0.057928342 0.038619082 -0.010518481 0.0019821217 0.037619095
-0.06029053 0.038071487 0.0003531281 -0.057286117 -0.024312202 -0.008185541 -0.01535367 -0.044246573
0.026312772 -0.05049047 -0.07247192 0.010704177 -0.06787964 -0.0154652195 0.011229901 -0.071245246
-0.010562286 0.051905766 -0.022050325 0.0022639064 -0.008560138 0.025333492 0.03361648 0.02510683
0.01994166 -0.07805909 -0.06233276 0.032286335 -0.017016089 -0.061329123 -0.02417045 0.060822953
0.014050217 0.052790545 -0.032716017 -0.018283542 0.010187184 -0.03988694 0.0006148738 0.06135764
0.0050160913 0.027629614 -0.06408178 0.05997456 0.062243383 -0.038237818 0.020078816 -0.0679007
-0.049611792 0.061374813 0.052543055 -0.060052197 0.032877408 0.031186251 -0.022527305 -0.06325443
-0.041863546 -0.07464471 -0.0175229 -0.07743996 0.008710878 0.0101425685 -0.014028571 -0.04084331
0.008559408 -0.07458927 -0.06845261 0.056823332 0.06554467 0.033451535 0.06799768 -0.022102311
0.035707798 0.034025207 0.04892316 -0.030860951 -0.042622656 -0.06956387 -0.03698356 -0.054572463
0.043645095 -0.012884061 0.0077916156 -0.008760487 -0.06546143 0.002935264 0.02425829 -0.067427814
0.039127775 0.059818715 0.031481948 0.059906036 0.036756136 0.034846377 0.039730493 -0.06428102
0.016703805 -0.012415625 -0.02372303 0.07048728 0.055873256 0.06712045 0.045540616 -0.00031043965
-0.05344313 0.050974526 0.07248128 0.046563428 -0.011623888 -0.07658208 -0.04214703 0.010397432
0.029534083 -0.0017949875 -0.049380604 -0.034939047 0.014431063 0.042263728 -0.07570136 0.07691672
0.0025892246 0.030832328 -0.029263087 0.058722116 0.033499274 -0.055676937 -0.021754049 -0.03965947
-0.017013619 -0.059475224 0.025250562 -0.04993135 0.067959115 -0.053694285 0.06218049 -0.07781775
0.07086961 0.070108116 0.0683369 0.069231525 0.040823705 -0.021246137 0.023873895 -0.004524555
0.0066943564 -0.00078496104 0.07257655 -0.039674193 0.055357255 0.08063593 0.0041138846 -0.07471218
-0.078873895 0.024988584 -0.062399354 -0.008030858 0.0036903128 0.03074641 -0.06241094 0.07536212
-0.033690445 -0.0099943895 -0.06741041 -0.024659391 0.008730979 -0.005794223 0.020874623 0.04992879
-0.010885818 0.041453846 0.035408158 -0.027858261 0.04716168 0.06603737 0.023722379 0.06439378
-0.023273624 -0.06617524 -0.010007783 0.01231908 -0.061853383 -0.04384041 0.040605802 -0.07357574
-0.0078137405 -0.011003207 0.053346705 0.05628617 -0.037023965 -0.06412894 0.04578246 0.005794315
0.053520456 0.07628347 -0.06736214 0.032183576 0.074225634 -0.0036053294 -0.04051987 0.011295274
0.0093145585 0.044870332 -0.03127245 0.0022709225 -0.06723773 0.041358173 0.017604643 -0.07087635
0.043439772 -0.0019868093 -0.06599561 -0.074708484 -0.04862264 0.043713354 -0.005162969 -0.019636668
-0.07922777 -0.010196225 0.035188686 -0.04533833 0.07534407 0.0537377 0.020809734 0.03192508
-0.026041957 -0.040191695 0.06864902 -0.009141496 -0.06297099 -0.073672846 -0.061486125 -0.011587628
0.077936865 0.054781538 0.007906401 0.05459072 0.042277858 0.067400366 -0.05131233 0.02427387

bias f4 [2]
00000000: 5c28 2fbd 2915 d3bc
-0.0427631 -0.025766926
