el2805_lab2_instructions_2021/problem3/neural-network-3-critic.pth (torch, 338967 bytes, 5 tensors)

weight f4 [400, 8]
0	0x3c163136	0.009167006
1	0x3ee47ab6	0.4462487
2	0xbe35e48d	-0.17762966
3	0xbeba3dca	-0.36375266
4	0xbeae3b41	-0.34029582
5	0x3e50b2a0	0.2038064
6	0xbf08c25d	-0.53421575
7	0x3e2824e1	0.16420318
8	0xbe63c858	-0.22244394
9	0xbf201605	-0.625336
10	0xbdbfba40	-0.09361696
11	0xbf0949b9	-0.53628117
12	0xbc598d64	-0.013278339
13	0xbe5f68ed	-0.2181737
14	0x3da3ad15	0.07991997
15	0x3d7ea2d2	0.062166996
16	0x3ef44568	0.47709203
17	0xbe1db63f	-0.15401553
18	0xbf5ec15c	-0.87013793
19	0x3f0286b4	0.5098679
20	0xbf69d112	-0.9133464
21	0x3d8fb208	0.07016379
22	0x3e5de5fa	0.2166976
23	0xbeb240d6	-0.3481509
24	0x3be54f2c	0.0069979634
25	0xbee0f052	-0.4393335
26	0xbc3e7c58	-0.011626326
27	0x3cac120e	0.021004703
28	0xbe630564	-0.22170025
29	0x3c3f1eac	0.011665028
30	0xbf034628	-0.51278925
31	0xbea2a0fe	-0.31763452
32	0xbe0cf86a	-0.13766637
33	0xbe85e33b	-0.26149926
34	0xbe3b2a41	-0.18277837
35	0xbdeb7491	-0.11496843
36	0xbe18031c	-0.14844936
37	0x3f30a8bb	0.6900746
38	0xbf094711	-0.53624064
39	0x3e655282	0.22394755
40	0xbeeb899e	-0.4600343
41	0xbecb23d2	-0.39675766
42	0xbeada382	-0.3391381
43	0xbeae6713	-0.34063014
44	0x3f41fa07	0.75772136
45	0x3ef87ba4	0.4853183
46	0x3debd9d9	0.115161605
47	0x3d9bbc89	0.076043196
48	0x3f13cb12	0.57731736
49	0xbda7da64	-0.081959516
50	0x3f0994ac	0.5374248
51	0xbef73274	-0.4828068
52	0xbeb3e1e6	-0.35133284
53	0x3e4e17f7	0.2012633
54	0x3dae8459	0.08521337
55	0x3e4a7bb8	0.19773757
56	0xbea1ac93	-0.31576976
57	0xbf046c8d	-0.51728135
58	0xbe9ca6c8	-0.30595994
59	0x3e9ca769	0.30596474
60	0x3ee80d1b	0.453225
61	0x3f141ed2	0.5785953
62	0xbe49de26	-0.19713649
63	0xbe3ffc73	-0.18748645
64	0xbf2b2f78	-0.66869307
65	0xbf06ed42	-0.52705777
66	0xbe8c84b1	-0.27444986
67	0xbf08e283	-0.5347063
68	0xbe1894d5	-0.14900525
69	0xbf037f02	-0.51365674
70	0x3d866ad5	0.06563345
71	0xbc17ecf3	-0.009272802
72	0x3f358a83	0.7091448
73	0xbe8f632f	-0.2800536
74	0x3d7e0cd8	0.062023968
75	0xbe32c0b6	-0.17456326
76	0xbe71728b	-0.23578851
77	0x3d00477e	0.03131818
78	0xbf6fa296	-0.9360746
79	0x3d44096e	0.047860555
80	0x3f1e6783	0.61876696
81	0xbd849157	-0.06473034
82	0x3e8c75e1	0.27433684
83	0xbc92b745	-0.017909655
84	0x3ede3e0b	0.4340671
85	0xbc397e71	-0.01132165
86	0x3c1cde0f	0.009574427
87	0xbee0d4ca	-0.43912345
88	0x3d8b57e4	0.06803873
89	0xbc739584	-0.01486719
90	0x3d5c98f0	0.05385679
91	0x3bb405f7	0.005493875
92	0xbe0de2e0	-0.13856077
93	0xbd74961a	-0.05971346
94	0xbe5895b3	-0.21150856
95	0xbeca589a	-0.39520723
96	0x3f443715	0.7664655
97	0xbe8d704d	-0.2762474
98	0x3e2c3ffb	0.16821282
99	0xbd31a6f2	-0.043372102
100	0xbe75f65d	-0.24019761
101	0xbcf4ea30	-0.029896826
102	0xbd3d5ee7	-0.046233084
103	0xbf35b62f	-0.70981115
104	0x3db56188	0.08856493
105	0x3df4f4bd	0.119607426
106	0xbd763a0c	-0.06011395
107	0x3e84659b	0.2585877
108	0xbda7f489	-0.08200938
109	0xbe90853b	-0.28226647
110	0xbeadaba3	-0.3392001
111	0xbedd8bec	-0.43270814
112	0xbf024b50	-0.5089617
113	0xbf07a9a8	-0.5299325
114	0xbece1cbc	-0.40256298
115	0xbf0e527f	-0.5559463
116	0x3ec4f85c	0.38470733
117	0x3ec0e486	0.3767435
118	0xbe336d49	-0.17522158
119	0xbdb36ec2	-0.0876136
120	0x3ec05f87	0.37572882
121	0xbe0d85df	-0.13820599
122	0xbee0df52	-0.4392038
123	0x3da7991b	0.081834994
124	0x3eca11ad	0.3946661
125	0x3f09a4af	0.5376691
126	0xbe51afa2	-0.20477155
127	0xbe41fe1d	-0.18944593
128	0xbf8bde24	-1.0927167
129	0xbe7346a8	-0.23757422
130	0xbf1ea6a7	-0.6197304
131	0xbe6974bd	-0.22798438
132	0x3ef8ee93	0.48619518
133	0x3c1d3ded	0.009597284
134	0x3e444f9c	0.19170994
135	0xbe80c4af	-0.25150058
136	0xbd589a7d	-0.052881707
137	0x3b6198e1	0.0034423398
138	0x3e280c9d	0.16411062
139	0x3d189bec	0.037258074
140	0x3fa4a632	1.2863219
141	0x3d88eed3	0.06686177
142	0xbf356a31	-0.7086516
143	0x3db7f22a	0.08981736
144	0x3d1b107b	0.037857514
145	0x3e2929ad	0.16519804
146	0xbe9e8a5e	-0.3096494
147	0xbe4955b6	-0.19661602
148	0xbf4732e1	-0.7781201
149	0x3e1199f5	0.14218886
150	0xbe9235d6	-0.285567
151	0xbe0cd3de	-0.13752696
152	0x3f2e46de	0.68076885
153	0xbec077f4	-0.37591517
154	0x3ed94e0f	0.42442366
155	0xbf0f5ed3	-0.56004065
156	0xbf1a3187	-0.6023182
157	0xbe687232	-0.22699812
158	0x3e002c4f	0.12516902
159	0x3c5984d6	0.013276299
160	0xbe02f910	-0.12790322
161	0xbdbf4ccb	-0.09340819
162	0x3e3754df	0.1790347
163	0xb94c4277	-0.00019479716
164	0xbe903d76	-0.2817189
165	0x3e18b9c8	0.1491462
166	0xbf02570d	-0.5091408
167	0xbed754ea	-0.42056972
168	0x3d16f141	0.03685117
169	0xbe73b55f	-0.23799656
170	0xbd66a830	-0.05631274
171	0x3e878031	0.2646499
172	0xbe8462d6	-0.25856656
173	0xbe42f0b4	-0.19037133
174	0xbf144818	-0.57922506
175	0x3e0ed2d6	0.13947615
176	0x3df0e09f	0.11761593
177	0x3eafcaf1	0.3433452
178	0x3cca8eac	0.024726234
179	0xbebf3620	-0.37345982
180	0x3eb8efc8	0.3612044
181	0x3e054dcb	0.13017957
182	0xbeb3e2b5	-0.351339
183	0xbea21865	-0.31659237
184	0x3d72f854	0.059318855
185	0xbd9a68cd	-0.075395204
186	0xbea28076	-0.31738633
187	0xbca52216	-0.020157855
188	0x3de23e27	0.11047011
189	0x3f26dfc2	0.6518518
190	0x3cd3d1f5	0.025856951
191	0xbf50ab00	-0.81510925
192	0x3e85bb29	0.26119354
193	0xbdd192b2	-0.10233058
194	0xbda4fd99	-0.080561824
195	0x3da1a6ff	0.0789318
196	0x3ec8c7db	0.39214978
197	0xbe02af6f	-0.12762235
198	0xbe4123bf	-0.18861292
199	0xbe70105b	-0.23443739
200	0x3e099c84	0.13438612
201	0x3c86720b	0.016411802
202	0x3d689b75	0.05678888
203	0x3e530c37	0.20610128
204	0x3f6074c8	0.87678194
205	0xbe98c731	-0.2983947
206	0x3e8403f0	0.25784254
207	0x3c427df5	0.011870851
208	0x3db21efb	0.08697315
209	0xbf4369b6	-0.7633318
210	0xbdd3ce0a	-0.10342033
211	0x3e2692c4	0.16266924
212	0x3e2d0f63	0.16900401
213	0x3ea40856	0.3203761
214	0xbecbd5da	-0.39811593
215	0xbec46225	-0.38356128
216	0x3c905665	0.017619321
217	0x3e885912	0.26630455
218	0xbc3f5fc6	-0.011680549
219	0xbdf49b01	-0.11943627
220	0xbe401e32	-0.18761519
221	0xbebb82ed	-0.36623326
222	0xbea33dc7	-0.3188307
223	0xbeebb690	-0.46037722
224	0xbf7afd17	-0.98042434
225	0x3ee5cade	0.44881338
226	0xbf295dc6	-0.6615871
227	0x3f093a72	0.53604805
228	0x3f119424	0.5686667
229	0x3e2a77f2	0.16647318
230	0x3abf8ff8	0.001461505
231	0xbe271e31	-0.16320111
232	0x3cb73bc8	0.022367373
233	0xbe183091	-0.14862277
234	0xbd3141dd	-0.043275703
235	0x3e97e30b	0.29665408
236	0x3e206088	0.15661824
237	0x3e054267	0.13013612
238	0xbe40aadf	-0.18815182
239	0xbe5ed138	-0.21759498
240	0xbe179bab	-0.14805476
241	0xbe5e772d	-0.2172515
242	0x3da17620	0.07883859
243	0x3eac485d	0.3364896
244	0xbf1f9c42	-0.62347806
245	0x3f5de8e4	0.8668349
246	0xbd643bdb	-0.055721145
247	0xbf35710a	-0.7087561
248	0x3d4d0eed	0.050063062
249	0xbcac4994	-0.021031179
250	0xbe4f7f30	-0.20263362
251	0xbd54fa94	-0.051996782
252	0xbebd2cec	-0.36948335
253	0xbdbdf27d	-0.092747666
254	0xbd4a1092	-0.04933221
255	0xbef9e476	-0.48807114

bias f4 [400]
0	0xbe38d34b	-0.18049352
1	0xbdcd3690	-0.100201726
2	0xbe253323	-0.16132788
3	0x3e782d5c	0.24236053
4	0x3c907d44	0.017637856
5	0xbee5afc0	-0.4486065
6	0xbeb720f9	-0.35767344
7	0xbdc7d338	-0.09757084
8	0xbe56c94b	-0.20975225
9	0xbe07eefe	-0.13274762
10	0xbe846f6f	-0.25866267
11	0xbe26de24	-0.16295677
12	0xbddad40d	-0.10684977
13	0xbd63d522	-0.05562318
14	0xbd868fde	-0.06570409
15	0x3d8473ec	0.06467423
16	0xbe1309f5	-0.14359267
17	0x3dbb1b05	0.09136013
18	0xbe35deab	-0.17760722
19	0xbe39fa27	-0.18161832
20	0xbe9245fa	-0.28569013
21	0x3e4f7e53	0.20263033
22	0xbd955686	-0.07291894
23	0xbe3579fc	-0.17722315
24	0x3e1ab797	0.15109096
25	0x3cf0911c	0.029366069
26	0x3e48e1c2	0.1961737
27	0xbcd1cff7	-0.02561186
28	0xbd4978f4	-0.049187616
29	0xbe00b669	-0.12569584
30	0xbdf52d93	-0.11971583
31	0xbe90dd18	-0.2829368
32	0xbcee7d84	-0.029112585
33	0xbe4a563c	-0.19759458
34	0xbe1b572f	-0.15169977
35	0xbea4ca41	-0.32185557
36	0x3db29030	0.08718908
37	0xbec9884b	-0.39361796
38	0xbe04d213	-0.12970762
39	0x3eaf49bd	0.34235945
40	0xbe670807	-0.22561656
41	0xbe49cbc5	-0.19706638
42	0xbe1b225e	-0.15149829
43	0x3e865d24	0.26242936
44	0x3cefd57d	0.029276604
45	0xbd3c9cc1	-0.04604793
46	0xbcf0665a	-0.02934568
47	0xbd41b9cc	-0.04729633
48	0xbe72deeb	-0.23717849
49	0xbe119583	-0.1421719
50	0xbe879d5a	-0.26487237
51	0xbdf9a997	-0.1219055
52	0xbe055e2c	-0.13024205
53	0x3eaae569	0.3337815
54	0xbe8dbf33	-0.27684936
55	0x3eef733d	0.46767607
56	0xbe46174c	-0.19344825
57	0x3e45835c	0.19288391
58	0xbe73f130	-0.23822474
59	0x3cd6ca33	0.026219463
60	0xbe92575e	-0.2858228
61	0xbe28de3c	-0.16491026
62	0xbdff6d54	-0.124720246
63	0xbe1f7d06	-0.15575036
64	0xbe13008a	-0.14355674
65	0x3e285011	0.16436793
66	0xbcab9bb8	-0.020948276
67	0xbe503c73	-0.2033556
68	0xbe1a97e6	-0.15097007
69	0xbd59e043	-0.05319239
70	0xbdb6173c	-0.0889115
71	0xbed3734b	-0.412989
72	0xbeccbc78	-0.3998754
73	0xbd4d2c2a	-0.050090946
74	0xbe8dcb3a	-0.27694112
75	0xbe67594e	-0.22592661
76	0x3e42d935	0.1902817
77	0xbd7519a0	-0.05983889
78	0xbe42bdce	-0.19017717
79	0xbe59ddca	-0.21276012
80	0xbd8be926	-0.06831579
81	0xbeb5087f	-0.35358045
82	0xbe96f54d	-0.29484025
83	0xbefb1842	-0.49041945
84	0x3cff33d4	0.031152643
85	0xbe42d673	-0.19027118
86	0xbe6caf66	-0.23113784
87	0xbe4c9434	-0.1997841
88	0x3ec7812e	0.38965744
89	0x3de7f19a	0.11325379
90	0xbcd00cbe	-0.025396701
91	0xbea79924	-0.32734025
92	0xbcaeba35	-0.021329025
93	0xbe4da933	-0.20084076
94	0xbe3cf38e	-0.18452284
95	0xbe7c890c	-0.24661654
96	0x3d5f3198	0.054490656
97	0x3e8b0e5b	0.2715939
98	0xbde3294c	-0.11091861
99	0xbee95839	-0.4557512
100	0x3e96fc50	0.29489374
101	0xbdf7794d	-0.12083683
102	0xbddcaa47	-0.10774665
103	0xbe058666	-0.1303955
104	0x3ebb0089	0.36523846
105	0xbecaf620	-0.39640903
106	0xbe8dfbae	-0.2773108
107	0xbdda182f	-0.10649144
108	0xbdf9c5fe	-0.12195967
109	0xbee6e71a	-0.45098191
110	0xbe6a8557	-0.22902428
111	0xbde78b6c	-0.113058895
112	0xbeae8659	-0.34086874
113	0xbe1e0c92	-0.15434483
114	0xbdd99e97	-0.10625952
115	0xbd8e6859	-0.069534965
116	0x3d15a1a8	0.03653112
117	0xbd5fa605	-0.054601688
118	0xbe08262c	-0.13295811
119	0xbe8dc046	-0.27685755
120	0x3e3dd2ef	0.18537496
121	0xbdbb7598	-0.091532886
122	0xbe9c23bc	-0.30496013
123	0xbe162cbe	-0.14665505
124	0xbea1272b	-0.31475195
125	0xbe8ae50d	-0.27127877
126	0x3e70dab6	0.23520932
127	0xbd19dab6	-0.037562095
128	0xbe38488b	-0.17996423
129	0x3c9513a8	0.01819785
130	0xbe1ca023	-0.15295462
131	0x3ec31742	0.38103682
132	0xbd708625	-0.05872168
133	0xbe365086	-0.17804155
134	0xbe4fc71f	-0.20290802
135	0xbe33405e	-0.17505023
136	0xbafb13b2	-0.001915565
137	0xbeac8906	-0.3369829
138	0xbd22876a	-0.039679922
139	0xbebadb70	-0.36495543
140	0xbe3afb48	-0.18259919
141	0xbeb31f7c	-0.34984958
142	0xbe6986e1	-0.22805358
143	0xbeaed144	-0.34144032
144	0xbe74272f	-0.23843072
145	0x3e8bf327	0.27333948
146	0xbde7f827	-0.11326628
147	0xbe5d3d14	-0.2160533
148	0xbe4ce3d6	-0.20008788
149	0xbd7000f0	-0.058594644
150	0xbe06c2b1	-0.13160206
151	0xbde96253	-0.11395707
152	0xbe44c36d	-0.19215174
153	0xbec715f7	-0.38883945
154	0xbe12fd77	-0.14354502
155	0xbe80792f	-0.25092456
156	0xbe044ba6	-0.12919483
157	0xbe21ffb4	-0.15820199
158	0xbe5fb79f	-0.2184739
159	0xbecb3e97	-0.3969619
160	0xbd6a0642	-0.057134874
161	0xbc37c6f7	-0.0112168705
162	0xbe8147cf	-0.25250098
163	0x3e7957e1	0.2434993
164	0x3e938603	0.2881318
165	0xbe8a0d58	-0.26963305
166	0xbee57b10	-0.44820452
167	0x3d6dd6ce	0.05806618
168	0xbed120d5	-0.4084536
169	0xbe82c821	-0.2554331
170	0x3d32d165	0.043656725
171	0xbea932f2	-0.3304668
172	0x3cc680b8	0.0242313
173	0xbe82252e	-0.2541899
174	0xbe660cb9	-0.22465791
175	0xbdf0de2d	-0.11761127
176	0xbd247697	-0.04015216
177	0xbdae8e9f	-0.085232966
178	0xbe987614	-0.29777586
179	0xbd74d22c	-0.059770748
180	0x3dd16ecc	0.10226211
181	0xbec2dd65	-0.38059536
182	0x3da59336	0.08084719
183	0xbe10dd51	-0.14146926
184	0xbc8ab604	-0.016932495
185	0x3ea4da41	0.32197765
186	0xbe20c220	-0.15699053
187	0xbd4f2379	-0.05057094
188	0x3e3b711d	0.18304868
189	0xbecb2b7f	-0.39681622
190	0xbe1c6cdb	-0.152759
191	0x3ead5074	0.33850443
192	0xbe1298cc	-0.143161
193	0x3d968c6c	0.07351002
194	0xbe717806	-0.23580942
195	0xbd90f74a	-0.07078417
196	0xbd9b23e0	-0.07575202
197	0x3e0be49b	0.13661425
198	0x3d7aecf7	0.061261144
199	0xbe48fc76	-0.19627556
200	0xbebc1a39	-0.36738756
201	0x3d0afd70	0.033933103
202	0xbdcc7578	-0.09983343
203	0xbe22b10c	-0.1588785
204	0xbb0b610f	-0.0021267568
205	0xbe392ef5	-0.18084319
206	0xbe25809e	-0.16162345
207	0xbe42ca3e	-0.19022462
208	0xbef0c2fa	-0.47023755
209	0xbea5b2c9	-0.32362965
210	0xbe2080dd	-0.15674157
211	0xbeeeb4de	-0.46622366
212	0xbeb0637f	-0.3445091
213	0x3c840a3a	0.016118158
214	0x3dd80cf2	0.10549344
215	0xbe0fd527	-0.14046155
216	0xbe840130	-0.25782156
217	0xbe2b3aaf	-0.16721605
218	0xbdef96a6	-0.11698656
219	0xbe2baa18	-0.16764104
220	0xbe89ae2b	-0.26890692
221	0xbe544f0f	-0.20733283
222	0xbe984660	-0.29741192
223	0x3e1c6688	0.15273488
224	0xbebb09e2	-0.36530977
225	0xbe9c2177	-0.30494282
226	0xbe4bb997	-0.19895016
227	0xbe0e212b	-0.1387984
228	0x3da66179	0.0812406
229	0xbe63ec27	-0.22258054
230	0x3ebf00c2	0.37305266
231	0xbf0236da	-0.50864947
232	0xbdd03665	-0.10166625
233	0xbe256dc3	-0.16155152
234	0xbcdd54c7	-0.027017964
235	0xbe2fbf6e	-0.17162868
236	0xbde36625	-0.11103467
237	0x3e483e2c	0.19554967
238	0xbe6a76d7	-0.22896896
239	0xbe445135	-0.19171603
240	0xbed2589c	-0.4108323
241	0xbef271fb	-0.47352585
242	0xbd0ec132	-0.034852214
243	0xbe0427de	-0.12905833
244	0xbd8f32fa	-0.06992145
245	0xbe85cd56	-0.2613322
246	0xbeb4d7f7	-0.35321018
247	0xbee7ddfd	-0.4528655
248	0xbe243767	-0.1603676
249	0x3ebc998d	0.368359
250	0xbe81d052	-0.25354248
251	0xbe4b070d	-0.19826908
252	0xbd39a913	-0.045327257
253	0xbd753e25	-0.05987372
254	0x3d29d314	0.041461065
255	0x3d67e6a3	0.056616437

weight f4 [200, 400]
0	0xbe7dec25	-0.24797113
1	0x3e4e083b	0.20120327
2	0xbdee81d3	-0.11645856
3	0x3ed80b90	0.4219632
4	0x3e8c71c2	0.2743054
5	0xbea9519f	-0.33070084
6	0xbea8e717	-0.32988808
7	0x3ebc528f	0.36781737
8	0xbe4be09e	-0.19909903
9	0xbd3a2154	-0.04544194
10	0xbeaf7d91	-0.34275487
11	0x3daa3607	0.08311086
12	0xbdf342eb	-0.11877998
13	0xbdd0a38d	-0.10187445
14	0xbe3b3105	-0.18280418
15	0x3ddb826a	0.10718234
16	0xbea6d0f5	-0.32581297
17	0x3d98d993	0.07463374
18	0xbdac183e	-0.08403061
19	0xbed13fdc	-0.40869033
20	0xbe07f539	-0.13277139
21	0x3e9e3b12	0.30904442
22	0xbe4eebc6	-0.20207128
23	0x3ecbe6bb	0.3982447
24	0x3e786241	0.24256231
25	0xbdc9638c	-0.0983344
26	0x3f16103d	0.5861853
27	0xbe7ce18c	-0.24695414
28	0xbf80a4d4	-1.0050302
29	0xbd075f5e	-0.033049934
30	0xbc7363f4	-0.014855374
31	0x3c033d04	0.008010153
32	0x3ddaeab9	0.10689301
33	0xbe871d79	-0.26389673
34	0xbebc0666	-0.36723632
35	0xbf2e728a	-0.6814352
36	0x3c0a2e65	0.008433913
37	0xbe3477a6	-0.17623767
38	0xbe936dd5	-0.28794733
39	0x3efba4c6	0.4914915
40	0x3dd7c0ab	0.105347954
41	0xbe8a989b	-0.27069554
42	0xbe947e24	-0.29002488
43	0x3ec7fd89	0.3906062
44	0x3dd485f2	0.103771105
45	0x3e8caeb2	0.27477032
46	0xbe855043	-0.26037797
47	0xbbf26ac2	-0.0073979804
48	0xbea1807c	-0.31543338
49	0xbe5454ad	-0.20735426
50	0x3e075a24	0.1321798
51	0xbd880b46	-0.06642775
52	0x3cb910e7	0.022591067
53	0x3ec6fbe7	0.3886406
54	0x3d0e6e07	0.0347729
55	0x3ec1839e	0.37795728
56	0xb9cf36d0	-0.00039522955
57	0x3ecaf94d	0.39643326
58	0x3d07f621	0.03319371
59	0xbf4e5fe4	-0.8061507
60	0x3e298ffb	0.1655883
61	0xbed4441c	-0.41458213
62	0xbe7eb295	-0.24872811
63	0xbba7239e	-0.0051006814
64	0xbea966b8	-0.3308618
65	0x3f5fe642	0.8746072
66	0xbf0cbbc8	-0.5497403
67	0x3e4cdf0b	0.20006959
68	0x3e08e2db	0.13367788
69	0xbe8fea98	-0.28108668
70	0x399072ec	0.00027551444
71	0xbe8fb9cf	-0.28071448
72	0x3e1c26fb	0.15249245
73	0x3ea5c223	0.32374677
74	0xbf66ae2f	-0.90109533
75	0xbe6979dc	-0.22800392
76	0x3d744ed9	0.059645507
77	0xbd77b7c7	-0.060477998
78	0xbe80144c	-0.25015485
79	0xbf1d691c	-0.6148851
80	0x3dd257c6	0.10270648
81	0xbea749f6	-0.32673615
82	0xbd869059	-0.06570501
83	0x3dbe7ed4	0.09301534
84	0xbf5297b8	-0.82262754
85	0x3d39e793	0.045386862
86	0x3b9273fe	0.0044693938
87	0xbd39805a	-0.04528842
88	0x3e742447	0.23841964
89	0x3e0231df	0.12714337
90	0x3ebc682a	0.3679822
91	0x3e1219de	0.1426768
92	0x3e53038b	0.2060682
93	0x3f63fb0f	0.8905496
94	0xbe90824d	-0.28224412
95	0xbc35cf68	-0.011096813
96	0x3dfdf373	0.1239995
97	0x3e78652f	0.24257348
98	0xbd728e53	-0.059217762
99	0xbe005b8d	-0.12534924
100	0x3d01cb83	0.031688225
101	0xbdaeda83	-0.085377716
102	0xbe1e8b9c	-0.15482944
103	0x3c9ca232	0.01912031
104	0x3dc66f69	0.096892186
105	0xbd108504	-0.035283104
106	0xbed35bf9	-0.41281107
107	0x3d6b1405	0.05739214
108	0xbf06b6d9	-0.52622753
109	0x3dc6b165	0.09701804
110	0xbe8d36c6	-0.2758085
111	0xbed57189	-0.41688183
112	0xbc980753	-0.01855818
113	0x3d8b32fa	0.067968324
114	0xbe81ca67	-0.25349733
115	0x3e985db6	0.29758996
116	0xbf936ea9	-1.1518146
117	0xbe97f019	-0.29675367
118	0xbeeed7e7	-0.46649095
119	0xbe6ada83	-0.22934918
120	0x3eff7d9b	0.49900517
121	0xbee88e19	-0.45420912
122	0x3d025495	0.031818945
123	0xbe9a40fc	-0.30127704
124	0x3cfcf37f	0.030877827
125	0x3b4694b8	0.0030301046
126	0x3ea9d4df	0.3317022
127	0xbe205903	-0.15658955
128	0x3e0fea35	0.14054187
129	0xbf805013	-1.0024437
130	0xbef913f9	-0.4864805
131	0x3f1b0c51	0.6056567
132	0xbd93b2cd	-0.07211838
133	0x3bf20bd8	0.007386666
134	0xbe0ba670	-0.1363771
135	0xbe8bfce6	-0.27341384
136	0x3e1befcb	0.15228193
137	0xbda66d1d	-0.081262805
138	0x3edd80d4	0.4326235
139	0xbf339e75	-0.7016366
140	0xbe8481e1	-0.2588034
141	0x3e3afb8c	0.1826002
142	0xbf1e8d46	-0.61934316
143	0xbdfe167c	-0.12406632
144	0xbd445e72	-0.047941633
145	0x3e8ea36c	0.27859056
146	0xbe05edcf	-0.13078998
147	0x3d27b3d5	0.040942986
148	0x3e083b55	0.13303883
149	0xbe88f9f1	-0.2675319
150	0xbe58785e	-0.21139666
151	0xbe55bcba	-0.20872775
152	0xbe6ec935	-0.23318942
153	0x3db4855c	0.08814499
154	0xbeb572f1	-0.35439256
155	0xbdf33e00	-0.1187706
156	0xbb670199	-0.0035248755
157	0xbe8cbbf0	-0.27487135
158	0xbe063a9f	-0.131083
159	0xbe903f4f	-0.281733
160	0xbde43b66	-0.11144142
161	0x3dd49a2f	0.10380971
162	0xbe938ca1	-0.2881823
163	0x3eb24f10	0.34825945
164	0x3ef125dc	0.47099197
165	0xbb96aeeb	-0.0045984886
166	0x3f0a5d41	0.54048544
167	0x3d5f40e0	0.05450523
168	0x3eabdcb9	0.33566836
169	0xbd90abcb	-0.07064017
170	0x3dbad7ad	0.09123168
171	0xbeab7fa5	-0.33495823
172	0xbf4f6a62	-0.810217
173	0xbef57838	-0.47943282
174	0xbe39746e	-0.1811082
175	0xbe9c29cc	-0.30500638
176	0xbf2d18f3	-0.67616194
177	0xbe6e5d5f	-0.23277806
178	0xbdba9638	-0.09110683
179	0x3e5a8831	0.21341015
180	0xbef77816	-0.48333806
181	0xbe810e24	-0.252061
182	0xbf069003	-0.52563494
183	0xbef91bb4	-0.48653948
184	0x3d27d1cc	0.040971562
185	0x3ce695d7	0.028147621
186	0xbbbc80e6	-0.0057526706
187	0x3df17d5c	0.117914885
188	0x3f093054	0.5358937
189	0xbcd70c83	-0.026251083
190	0xbda0028f	-0.07812988
191	0x3ee8e6a9	0.4548848
192	0xbd2fe34a	-0.04294137
193	0x3e40d2c5	0.18830402
194	0xbdd2896b	-0.10280117
195	0xbd889205	-0.06668476
196	0x3da739df	0.08165335
197	0xbe3c9e28	-0.18419707
198	0x3f05bbba	0.52239573
199	0xbe0579e8	-0.13034785
200	0xbde5c396	-0.11218946
201	0xbd8a8b98	-0.06764907
202	0x3dd7daf7	0.10539811
203	0xbe778d6c	-0.24175042
204	0xbf1808ad	-0.5938824
205	0x3e04c3bc	0.12965292
206	0xbe548aee	-0.20756122
207	0xbe607d2a	-0.21922746
208	0x3ec37a40	0.38179207
209	0xbda4c3ac	-0.08045134
210	0x3d861abc	0.06548068
211	0xbe247849	-0.1606151
212	0xbedbe2ed	-0.42946568
213	0x3e30a6e0	0.17251158
214	0x3d91fe42	0.07128574
215	0xbece5b1f	-0.40303895
216	0x3ea5c9c4	0.32380497
217	0xbe13dbc1	-0.14439298
218	0x3c7746e8	0.015092589
219	0xbeea203f	-0.45727727
220	0xbded2796	-0.11579816
221	0xbc382f1c	-0.0112417005
222	0xbdbe116f	-0.09280669
223	0x3dbbb7e5	0.091659345
224	0xbf1ab66f	-0.6043462
225	0xbe34b284	-0.17646223
226	0xbd48a3d5	-0.048984367
227	0xbeb176d6	-0.34660977
228	0x3e81dd3d	0.25364104
229	0xbcc9069f	-0.02453929
230	0x3f0572ac	0.521281
231	0x3e963ea0	0.29344654
232	0xbe8b8e38	-0.27256942
233	0xbe4dd581	-0.20100977
234	0x3c01a732	0.007913398
235	0xbb1edbe0	-0.0024239942
236	0xbe2da1da	-0.16956273
237	0x3e8f7f08	0.28026605
238	0xbe1288a3	-0.14309935
239	0xbe15193e	-0.1456041
240	0xbe03e9e8	-0.12882197
241	0x3c5755f4	0.013143051
242	0xbdf43ba1	-0.11925436
243	0x3c0b46e9	0.008500793
244	0x3d768783	0.060187828
245	0xbee60222	-0.44923502
246	0x3d31b450	0.04338485
247	0xbd95861e	-0.073009714
248	0x3ef74a20	0.4829874
249	0x3f0030d8	0.5007453
250	0xbebafe75	-0.3652226
251	0xbe98736a	-0.29775554
252	0x3c1d9ce5	0.009619926
253	0xbe722390	-0.23646379
254	0x3e321d7b	0.17394058
255	0x3da76696	0.081738636

bias f4 [200]
0	0x3e835760	0.256526
1	0x3f2a5c05	0.6654666
2	0xbdaf8d5d	-0.08571885
3	0xbd97df08	-0.07415587
4	0xbd778198	-0.060426325
5	0x3eba0f6a	0.36339885
6	0x3f211d7e	0.62935627
7	0x3bc89a71	0.0061219265
8	0xbcb1f200	-0.02172184
9	0xbe277b4f	-0.16355632
10	0x3c8ef607	0.0174513
11	0xbe2cb550	-0.1686604
12	0xbd3b1034	-0.04566975
13	0x3e4d978d	0.20077343
14	0x3e8580ae	0.26074737
15	0xbb0748d2	-0.002064277
16	0xbe162b1b	-0.14664881
17	0xbc41db74	-0.011832107
18	0xbcd7561e	-0.026286181
19	0xbda81e85	-0.08208946
20	0xbda187fa	-0.078872636
21	0x3ea45df3	0.32102928
22	0xbd32fa97	-0.043696012
23	0xbda98f09	-0.08279235
24	0xbd21a480	-0.03946352
25	0xbdc0ca2a	-0.0941356
26	0x3c164e1b	0.009173895
27	0x3caafa4d	0.020871306
28	0xbd97b851	-0.074082024
29	0x3c347693	0.011014598
30	0xbda6eb0f	-0.081503026
31	0xbc546a0c	-0.012964737
32	0x3c9e8720	0.019351542
33	0xbd78b38f	-0.060718115
34	0xbdeaa5a0	-0.11457372
35	0xbd9fb5d4	-0.07798353
36	0xbd1dd9e1	-0.038537864
37	0xbc22567b	-0.009908314
38	0xbc6151c8	-0.013752408
39	0xbe0b2ece	-0.13592073
40	0x3dd0a49e	0.10187648
41	0xbdcaf358	-0.099096954
42	0xbc541a53	-0.012945729
43	0x3e5d6ada	0.21622792
44	0x3c70468a	0.014665255
45	0x3e9bbd8c	0.3041805
46	0xbd2de823	-0.04245771
47	0xbdbeab3a	-0.093100026
48	0xbe0288b3	-0.12747459
49	0x3ea1a28c	0.31569326
50	0xbdc1c6e3	-0.09461763
51	0x3edf99ee	0.43672127
52	0xbd559f32	-0.052153774
53	0xbdb252e0	-0.087072134
54	0xbc70cba6	-0.014696991
55	0xbd5d8917	-0.054085817
56	0xbe1506be	-0.14553353
57	0x3dd7ae68	0.10531312
58	0xbd8f21f9	-0.06988902
59	0x3dd14837	0.10218852
60	0xbd7e43f0	-0.06207651
61	0x3ed82c54	0.4222132
62	0xbd98fed8	-0.074704826
63	0x3e9d5fdb	0.30737194
64	0xbc8d3991	-0.017239364
65	0xbcd8d0a0	-0.026466668
66	0xbd8de7f1	-0.06929005
67	0xbd07ad88	-0.033124477
68	0x3e805596	0.25065297
69	0xbe06faea	-0.13181654
70	0x3efbc883	0.49176416
71	0xbdae54ec	-0.08512291
72	0xbc9d6975	-0.019215325
73	0x3c14bad3	0.0090777455
74	0x3c15823e	0.00912529
75	0xbc71680b	-0.014734278
76	0xbd91113b	-0.070833646
77	0xbcfff062	-0.031242553
78	0x3e70d481	0.23518564
79	0xbc0c792e	-0.008573813
80	0xbd1bf49b	-0.03807507
81	0xbe265310	-0.16242623
82	0xbd85ca29	-0.065326996
83	0xbd71e689	-0.059057746
84	0xbd743d79	-0.059628937
85	0xbd27c07b	-0.040955048
86	0xbd844280	-0.06457996
87	0x3f0037d0	0.50085163
88	0xbe4e061b	-0.20119517
89	0xbd282ae6	-0.041056536
90	0xbcc13440	-0.023584485
91	0xbdae3edc	-0.08508083
92	0xbd2b957a	-0.0418906
93	0xbd67bdf2	-0.05657763
94	0xbd46585e	-0.048424117
95	0xbca4bc40	-0.020109296
96	0x3ef09458	0.46988177
97	0xbdd89c55	-0.10576693
98	0xbd03b74f	-0.03215724
99	0xbe376a84	-0.17911726
100	0xbdb78fee	-0.08962999
101	0x3f005cfb	0.50141877
102	0xbd978fe0	-0.07400489
103	0xbe1d1f0c	-0.15343875
104	0x3e027c73	0.12742786
105	0xbd9d90ac	-0.076936096
106	0xbc3d20bf	-0.011543452
107	0x3d35e2a5	0.0444056
108	0xbe24008d	-0.16015835
109	0xbd07d933	-0.03316612
110	0xbd957f0f	-0.07299625
111	0xbdbe82f2	-0.093023196
112	0xbdaa7941	-0.083239086
113	0xbcae0639	-0.021243202
114	0xbe28b32b	-0.16474597
115	0xbd6538be	-0.055962317
116	0xbc43b3ee	-0.011944754
117	0x3e9b320e	0.30311626
118	0xbd9fdf25	-0.07806233
119	0x3e44bc01	0.19212343
120	0xbe1eef99	-0.15521087
121	0xbcce2306	-0.025163185
122	0xbdb0de79	-0.08636183
123	0x3e8312c7	0.25600263
124	0x3f25cdf0	0.6476736
125	0x3f43ae84	0.76438165
126	0xbc56a2af	-0.01310031
127	0xbe80ad87	-0.2513239
128	0x3f0b1628	0.5433068
129	0xbda7226d	-0.08160863
130	0xbc974ffb	-0.018470755
131	0xbdb445c4	-0.08802369
132	0xbd28d5de	-0.041219585
133	0xbe0caa1d	-0.13736768
134	0xbb94f042	-0.0045452425
135	0xbd66473f	-0.05622029
136	0xbe14e87c	-0.14541811
137	0xbcf74e31	-0.030188652
138	0xbe992250	-0.2990899
139	0xbcecbd03	-0.028898722
140	0xbd366fce	-0.04454022
141	0xbd880a58	-0.06642598
142	0xbd9bcf46	-0.07607894
143	0xbdcc4619	-0.099743076
144	0xbcdc663e	-0.026904222
145	0xbd22dcdf	-0.03976142
146	0xbe09f57b	-0.1347255
147	0x3e8cfde4	0.27537453
148	0xbc14de72	-0.009086238
149	0xbd1d7afe	-0.038447373
150	0xbd87816d	-0.06616483
151	0xbd08381d	-0.03325664
152	0xbc8e0a32	-0.017338846
153	0xbd7aea35	-0.061258513
154	0x3af322f4	0.0018549846
155	0xbd3e6f3b	-0.046492796
156	0xbd85fb02	-0.065420166
157	0xbdf6d8aa	-0.12053044
158	0xbe11d740	-0.14242268
159	0x3f4a4250	0.79007435
160	0x3dec2035	0.115295805
161	0xbd9fdd95	-0.07805935
162	0xbd9eaad8	-0.077474296
163	0xbd13bde1	-0.036069755
164	0xbd47892e	-0.04871481
165	0x3dedbcb7	0.1160826
166	0xbd4963da	-0.04916749
167	0x3ee1d3f8	0.44107032
168	0xbd90e19c	-0.070742816
169	0xbdb399e4	-0.08769587
170	0xbce86deb	-0.028372725
171	0xbd5b719a	-0.053575136
172	0x3f1bc1fa	0.6084286
173	0xbd8b1251	-0.06790603
174	0x3bad840b	0.0052952818
175	0x3ca6e881	0.020374538
176	0x3b2fcb1e	0.0026823948
177	0x3f1cb2b8	0.61210203
178	0xbd59e824	-0.053199902
179	0x3f129d98	0.5727172
180	0xbd374c6d	-0.04475062
181	0x3e343d80	0.17601585
182	0xbd070a71	-0.032968942
183	0xbde47ca5	-0.111565866
184	0xbc67cb4c	-0.014147591
185	0xbdcecec2	-0.1009803
186	0xbe2f3e45	-0.17113598
187	0x3ebc37cb	0.36761317
188	0x3bb89ffd	0.0056343065
189	0xbd911cf8	-0.070856035
190	0x3e4c6ba4	0.19962937
191	0xbcea8921	-0.028629841
192	0x3c5643fd	0.013077733
193	0xbd455884	-0.04818012
194	0xbd95a93c	-0.073076695
195	0xbe188747	-0.14895354
196	0xbdc9eb44	-0.098593265
197	0xbcc14136	-0.023590665
198	0xbd812f24	-0.063078195
199	0xbda1d489	-0.07901866

weight f4 [1, 200]
0	0x3e2c19a4	0.16806656
1	0x3ed58631	0.41703942
2	0xbd950d04	-0.07277873
3	0xbd7e974c	-0.062156007
4	0xbe092d73	-0.13396244
5	0x3ec7106c	0.38879716
6	0x3eeabb88	0.458462
7	0x3d298f37	0.041396346
8	0x3d35c504	0.044377342
9	0x3d041d65	0.032254595
10	0x3ee45de2	0.44602877
11	0xbc47cc3f	-0.012194692
12	0xbe142a23	-0.14469199
13	0x3e61a977	0.22037302
14	0x3e9b8ae6	0.3037941
15	0xbc6ba3f5	-0.014382352
16	0xbd52f6bf	-0.051504847
17	0x3de0fe8d	0.10986052
18	0xbdb41c05	-0.08794407
19	0xbdb16303	-0.08661463
20	0xbd800fe8	-0.06253034
21	0x3e94b1f0	0.29042006
22	0x3cab777b	0.020930996
23	0xbd957b64	-0.072989255
24	0xbd97a9ff	-0.07405471
25	0x3bf30a5c	0.0074170064
26	0xbe510d88	-0.20415318
27	0xbe5840fe	-0.21118543
28	0x3c892038	0.016738996
29	0xbe2f6cb7	-0.17131315
30	0xbdf4793d	-0.11937187
31	0xbdf3e0a1	-0.11908079
32	0x3d41545b	0.04719959
33	0x3c0afeaf	0.008483573
34	0x3c873dba	0.016508926
35	0xbdda2b79	-0.10652823
36	0xbd7a851c	-0.0611621
37	0x3e4053da	0.18781987
38	0xbe219bb9	-0.1578206
39	0x3cb0668f	0.021533279
40	0xbeb13c34	-0.34616244
41	0xbde1c471	-0.11023796
42	0xbe487b63	-0.19578318
43	0x3e69bb6c	0.22825402
44	0x3c1213f3	0.008915889
45	0x3e9e3762	0.3090163
46	0xbd6a0a4f	-0.057138737
47	0xbc63dac3	-0.013907137
48	0xbd8d3f36	-0.06896822
49	0x3ec3a2b8	0.38210082
50	0xbc96ad4a	-0.018393178
51	0x3eac3361	0.3363295
52	0x3d673e5e	0.056455962
53	0xbe016857	-0.12637459
54	0xbe1f1310	-0.15534616
55	0xbd6ce484	-0.057835117
56	0xbd2db375	-0.04240747
57	0x3e4102f2	0.1884878
58	0xbd2f93c6	-0.042865537
59	0x3e46a9db	0.19400732
60	0x3d0ee679	0.034887765
61	0x3e67a39e	0.22621009
62	0x3ca72fc7	0.020408524
63	0x3e85ef22	0.26159006
64	0xbde89af3	-0.11357679
65	0xbe68836f	-0.22706388
66	0xbe2db715	-0.16964372
67	0xbe06a66e	-0.13149425
68	0x3e1e054e	0.15431711
69	0x3cb776dd	0.022395546
70	0x3e524c23	0.20536856
71	0xbdd0fd46	-0.10204558
72	0x3cfbca4a	0.030736107
73	0xbe3a63bd	-0.1820211
74	0xbc8211fd	-0.015877718
75	0xbbf7681a	-0.0075502517
76	0xbdf60318	-0.12012309
77	0x3d6287ca	0.05530528
78	0x3e5da2e4	0.21644169
79	0xbc428b1d	-0.0118739875
80	0x3d4bc0b7	0.049744334
81	0x38ef7a4a	0.00011419186
82	0x3c68ee6a	0.014216999
83	0xbd937a36	-0.07201044
84	0xbdf78170	-0.12085235
85	0xbe0d535b	-0.13801329
86	0xbe03dc6b	-0.12877052
87	0x3ea0d8e8	0.31415486
88	0x3ce1b6cd	0.027552987
89	0x3b04dde6	0.0020273863
90	0xbdba48fd	-0.09095953
91	0xbdcb6e91	-0.09933198
92	0xbdab2fe4	-0.08358744
93	0xbe02b943	-0.12765984
94	0xbd865b56	-0.0656039
95	0x3d5a8695	0.053351004
96	0x3e8b074f	0.27154014
97	0xbe0ff035	-0.14056475
98	0xbe1a0172	-0.15039614
99	0x3d02fa06	0.031976722
100	0xbd97f1fa	-0.074192
101	0x3e8ab8cc	0.27094114
102	0xbd8ef6c2	-0.06980659
103	0x3d0bd0f5	0.034134824
104	0x3e78b142	0.24286368
105	0xbddeba8e	-0.10875426
106	0xbde3ca3a	-0.11122556
107	0xbd7384b2	-0.05945272
108	0xbcecad86	-0.028891336
109	0xbc9829cb	-0.018574616
110	0xbe0cda3b	-0.13755123
111	0x3c902c16	0.017599147
112	0xbe0fcc3a	-0.1404275
113	0xbe0431bb	-0.12909596
114	0xbc53c12a	-0.012924472
115	0x3bcfdc33	0.0063433885
116	0xbd3e9d07	-0.04653647
117	0x3e21f6dd	0.15816827
118	0xbca38f14	-0.019965686
119	0x3e1a2f8a	0.15057197
120	0x3c333f84	0.010940436
121	0x3dc79378	0.09744924
122	0xbd2fed9a	-0.042951204
123	0x3e2794b2	0.16365317
124	0x3eb816e4	0.35954964
125	0x3f044939	0.5167423
126	0xbe2dcb03	-0.16971974
127	0x3bf9bb51	0.007621207
128	0x3eb7a6d3	0.35869464
129	0xbdf6ffe7	-0.12060528
130	0xbdea49a3	-0.11439826
131	0xbde05797	-0.109542064
132	0xbda0fbac	-0.078605026
133	0x3caae1ae	0.020859566
134	0xbe4ebd76	-0.20189461
135	0xbda135ec	-0.07871613
136	0x3c6456fa	0.013936752
137	0xbd9acb00	-0.075582504
138	0xbc8ef296	-0.017449658
139	0xbbdcde6a	-0.006740381
140	0x3c07a840	0.00827986
141	0xbe14e512	-0.14540508
142	0xbdd23495	-0.102639355
143	0xbc65d7e8	-0.014028527
144	0x3b6f441c	0.0036509102
145	0x3b742fcb	0.0037259932
146	0xbcef697b	-0.029225102
147	0x3e03028f	0.12793945
148	0xbe12a586	-0.14320955
149	0xbe23f68f	-0.16012023
150	0xbe0eaf7a	-0.13934126
151	0x3c1cff80	0.0095824
152	0x3d4c9d02	0.04995442
153	0xbd98c8c7	-0.0746017
154	0xbcda5bef	-0.026655165
155	0xbe58ea89	-0.21183218
156	0x3c590035	0.013244678
157	0x3d006949	0.031350408
158	0x3c87271c	0.016498141
159	0x3f07ea0e	0.53091514
160	0x3e4156e4	0.18880802
161	0x3d2ef059	0.042709682
162	0xbd30f384	-0.043200985
163	0x3c9faa40	0.019490361
164	0xbe090ea9	-0.13384499
165	0x3d564445	0.0523112
166	0x3c92e36a	0.017930705
167	0x3ee5c417	0.44876167
168	0x3bc84538	0.006111767
169	0xbe014c3a	-0.12626734
170	0xbe1a8284	-0.1508885
171	0xbe46fdaf	-0.1943271
172	0x3eb71da4	0.35764802
173	0xbcb6399a	-0.022244263
174	0xbe48e8ee	-0.19620106
175	0xbe514ae9	-0.20438732
176	0x3c91f639	0.017817603
177	0x3e8845e8	0.26615834
178	0x3d0d3662	0.03447569
179	0x3ea1ff4a	0.31640083
180	0xbe169a2c	-0.1470725
181	0x3e0e0928	0.1387068
182	0x3d315062	0.04328955
183	0xbe02c12d	-0.12769003
184	0xbe21995a	-0.15781155
185	0xbca40512	-0.020021949
186	0x3d08acf0	0.03336805
187	0x3e6d6862	0.2318435
188	0x3d1bf9d9	0.03808007
189	0x3d3b8568	0.045781523
190	0x3e4f2a20	0.20230913
191	0xbe084aa0	-0.13309717
192	0xbc8576b0	-0.016291946
193	0xbe196d77	-0.14983164
194	0xbc6fcffb	-0.014636989
195	0x3cccec30	0.025014967
196	0xbcbfba93	-0.023404395
197	0xbcce43e5	-0.025178859
198	0xbc86f902	-0.016476158
199	0xbc8d4424	-0.017244406
