el2805_lab2_instructions_2021/problem2/neural-network-2-actor.pth (torch, 339863 bytes, 6 tensors)

weight f4 [400, 8]
-0.27371463 0.18319875 -0.49235633 0.3030784 -0.489279 0.26047987 -0.07098238 -0.21062957
0.39865378 0.3540899 0.28972855 -0.37557864 -0.39880767 -0.38186166 0.23252134 -0.13110754
-0.1950863 -0.047312643 0.123936065 0.39752188 -0.61504334 -0.31639674 -0.23077276 -0.12519377
0.17372261 0.074668884 0.07794928 0.5401677 -0.28962412 0.11408874 0.32915014 -0.19500841
0.31132478 -0.2736708 -0.038987886 -0.07001585 0.0717043 0.31684777 0.30187327 0.51574576
0.38081235 0.02436615 0.05969433 -0.4145833 -0.24219976 -0.25176513 -0.15775315 0.049717724
0.3352025 -0.14949588 -0.50128305 0.20173396 -0.37589145 -0.3245023 0.041936778 -0.17426537
0.44828153 0.36279422 0.16240387 0.08639275 -0.45411775 0.032532297 0.29597798 -0.22516136
-0.475057 -0.14462657 0.38985258 0.11267888 0.25497064 0.022315605 -0.029478557 0.2851882
0.055674538 0.31734535 0.67905617 -0.33092517 0.36708146 0.14985251 0.10108151 0.1606076
0.19850081 -0.24288389 -0.30737832 -0.367857 0.23259273 -0.08078553 0.37465483 -0.3006038
-0.059533093 0.30352473 0.26835164 0.78395426 -0.29440457 0.049146116 -0.19752887 -0.12326996
0.09167983 0.35769692 -0.1485189 0.5023434 -0.069135144 -0.2791087 -0.26155406 0.15761445
-0.2905444 -0.1341052 0.13831247 -0.29233626 -0.07845992 -0.20446147 -0.190704 -0.32980523
-0.19059108 0.13574338 0.17374922 -0.0142067475 -0.88183486 -0.22659068 0.17035078 -0.29621884
0.10467653 0.3263744 -0.6929704 0.07384183 0.26556018 0.18132946 0.08819322 -0.3112548
0.12760676 -0.05633602 -0.41060147 -0.31412342 -0.5360436 -0.3412134 -0.37362185 0.04244464
-0.37543195 -0.27301982 0.083993874 -0.30205473 0.22536068 0.467431 0.36494946 -0.034737412
-0.098622136 -0.07105525 -0.45906523 0.21610335 0.4574926 -0.20922124 -0.14431483 -0.2783496
0.10789318 0.29141217 0.5647825 0.23828734 -0.008979143 -0.038219582 0.22834486 0.43993992
-0.14111064 0.31781396 -0.5058137 -0.23459512 -0.89774626 0.151044 0.009817355 -0.33215582
0.12151999 -0.06276789 -0.11093133 0.29658455 -0.3282798 -0.06898509 0.06817643 0.010076635
-0.43875545 0.2565717 -0.11848651 -0.27242526 0.05700473 -0.62823045 -0.05868007 0.2876059
0.10200841 -0.008003536 -0.2909542 -0.1241668 0.90983295 0.1769986 -0.058342382 -0.049327184
0.07232674 -0.077706754 -0.6734499 0.121956564 -0.50897056 0.124829754 -0.26934636 -0.21402131
-0.03997194 -0.21221629 -0.026977168 0.67948073 0.45014104 -0.2813234 0.0021817202 -0.07522574
-0.38049042 -0.12859038 -0.41371074 -0.37796742 -0.5318235 -0.10836683 0.1722184 -0.16338839
-0.26029307 -0.17263055 0.39956802 0.5351252 0.03949651 0.18459132 0.36219352 0.11293668
0.33012 -0.05411543 -0.39254388 0.1169944 0.16490212 0.15341583 -0.29959095 0.041285895
-0.033091065 0.35676154 -0.11492089 0.18354765 0.25999212 -0.5157939 -0.07209888 0.046713114
0.2559833 0.06136955 0.020709127 0.00084098417 -0.03948096 -0.16255644 0.049328927 -0.24655887
-0.30954432 0.2706765 0.10633938 -0.002605886 0.28310123 0.63533485 -0.012822581 -0.10419399
00000000: 5324 8cbe 7498 3b3e 2116 fcbe 182d 9b3e
00000010: c782 fabe 9e5d 853e 365f 91bd 47af 57be
00000020: 591c cc3e 454b b53e 4d57 943e d84b c0be
00000030: 8530 ccbe 5f83 c3be 131a 6e3e 0e41 06be
00000040: b4c4 47be e7ca 41bd 31d2 fd3d fd87 cb3e
00000050: 7b73 1dbf c1fe a1be b24f 6cbe cc32 00be
00000060: 57e4 313e 00ec 983d dfa3 9f3d 6e48 0a3f
00000070: 9d49 94be 5ba7 e93d 5e86 a83e 49b0 47be
00000080: f665 9f3e 941e 8cbe c3b1 1fbd 7864 8fbd
00000090: b4d9 923d df39 a23e 228f 9a3e ea07 043f
000000a0: d6f9 c23e 859b c73c 0b82 743d 4344 d4be
000000b0: 3703 78be 5ce7 80be 0b8a 21be d0a4 4b3d
000000c0: a99f ab3e 7315 19be 1654 00bf 5993 4e3e
000000d0: d874 c0be 2a25 a6be e6c5 2b3d 9f72 32be
000000e0: 2885 e53e 2ac0 b93e 334d 263e afee b03d
000000f0: 1f82 e8be 9640 053d 6d8a 973e b390 66be
00000100: ac3a f3be fd18 14be c29a c73e 2fc4 e63d
00000110: 838b 823e 37cf b63c 047d f1bc 3004 923e
00000120: fc0a 643d 177b a23e a0d6 2d3f 066f a9be
00000130: 1af2 bb3e f072 193e d303 cf3d 5276 243e
00000140: cc43 4b3e 8eb6 78be b160 9dbe c157 bcbe
00000150: ca2c 6e3e e272 a5bd c2d2 bf3e bee8 99be
00000160: f9d8 73bd 9867 9b3e 6365 893e 3ab1 483f
00000170: 32bc 96be 704d 493d 0245 4abe f674 fcbd
00000180: a2c2 bb3d 0d24 b73e 5715 18be 9499 003f
00000190: ba96 8dbd 56e7 8ebe 6aea 85be af65 213e
000001a0: 3cc2 94be e052 09be c9a1 0d3e 19ad 95be
000001b0: 98af a0bd 595e 51be e947 43be 3bdc a8be
000001c0: 4f2a 43be 5000 0b3e 51eb 313e 6bc3 68bc
000001d0: eebf 61bf 6307 68be 6f70 2e3e ffa9 97be
000001e0: a660 d63d 8c1a a73e 8266 31bf 633a 973d
000001f0: 81f7 873e 6eae 393e a69e b43d ca5c 9fbe
00000200: 59ab 023e 99c0 66bd 5b3a d2be c9d4 a0be
00000210: 273a 09bf 86b3 aebe 5d4b bfbe 6eda 2d3d
00000220: 9e38 c0be 41c9 8bbe fb04 ac3d eba6 9abe
00000230: f3c4 663e 1e53 ef3e a8da ba3e d148 0ebd
00000240: 67fa c9bd 6a85 91bd 990a ebbe 324a 5d3e
00000250: 783c ea3e 183e 56be 44c7 13be d783 8ebe
00000260: 19f7 dc3d fa33 953e 9695 103f 9901 743e
00000270: 411d 13bc 238c 1cbd 3cd3 693e ce3f e13e
00000280: 4f7f 10be 83b8 a23e 027d 01bf b439 70be
00000290: b3d2 65bf 47ab 1a3e f9d8 203c 5410 aabe
000002a0: 79df f83d 748c 80bd f72f e3bd eed9 973e
000002b0: 4a14 a8be 0e48 8dbd 16a0 8b3d 7818 253c
000002c0: 8ea4 e0be 5e5d 833e 0ea9 f2bd 537b 8bbe
000002d0: cb7d 693d b6d3 20bf 835a 70bd 1541 933e
000002e0: c9e9 d03d 4321 03bc f3f7 94be 2a4b febd
000002f0: d0ea 683f 1f3f 353e 6cf8 6ebd 4d0b 4abd
00000300: 0b20 943d b824 9fbd 3667 2cbf 5dc4 f93d
00000310: e54b 02bf bea6 ff3d c4e7 89be 6728 5bbe
00000320: 9eb9 23bd 3a4f 59be 39ff dcbc 73f2 2d3f
00000330: e378 e63e 9f09 90be 31fb 0e3b f40f 9abd
00000340: a4cf c2be 32ad 03be e5d1 d3be f284 c1be
00000350: 9625 08bf 6eef ddbd 055a 303e 494f 27be
00000360: 2245 85be 10c6 30be 2e94 cc3e f7fd 083f
00000370: 18c7 213d 8205 3d3e 6e71 b93e 594b e73d
00000380: 7d05 a93e 24a8 5dbd 83fb c8be c39a ef3d
00000390: 1adc 283e 0a19 1d3e fc63 99be 661b 293d
000003a0: 7f8a 07bd 73a9 b63e a55b ebbd eaf3 3b3e
000003b0: b01d 853e 120b 04bf 94a8 93bd 4056 3f3d
000003c0: 3e10 833e a35e 7b3d 30a6 a93c 7e75 5c3a
000003d0: cab6 21bd 3275 26be 210d 4a3d ee79 7cbe
000003e0: 987c 9ebe 1c96 8a3e 76c8 d93d 83c7 2abb
000003f0: a5f2 903e 4ea5 223f ce15 52bc a963 d5bd

bias f4 [400]
0.19950154 -0.009164152 0.18882957 0.10137178 -0.1516153 -0.21211495 -0.04681545 -0.0013237643
-0.17184126 -0.035365555 -0.20411853 -0.28785574 -0.25767928 0.33838025 0.19524395 -0.04684391
0.13420899 -0.002797769 0.10235809 -0.097504616 0.09829181 -0.2243359 -0.15965968 0.09137989
-0.0009250255 0.29091695 0.30332524 0.30016336 -0.059639074 -0.071995005 0.2503444 0.021129947
0.0072202487 0.14341024 0.1816138 -0.035779078 -0.078485824 0.12933666 -0.07819479 0.2323626
0.099624164 -0.05684098 0.09712846 0.030840643 -0.08889262 0.33421782 -0.25825596 -0.082292266
0.04351727 -0.16108257 0.026987558 -0.22094262 0.2818498 0.047830578 0.03272341 0.2591026
0.11290277 0.0156195 -0.19451214 -0.34264955 -0.26621017 0.010730545 0.07512055 0.1362938
0.12819088 0.074756175 -0.21394812 -0.27017656 -0.0843883 -0.193226 0.14536189 -0.011415708
0.027466858 -0.033171546 -0.19820958 0.15407482 0.03822599 0.25853717 0.029977754 0.26062858
-0.19833457 0.06465458 -0.0009686947 0.11500541 -0.0020187304 -0.2973242 0.10493343 0.273379
-0.20532022 -0.27943504 -0.0073192283 -0.12885416 -0.32017294 0.2312655 0.054874092 -0.14553256
0.34243545 -0.0057682637 -0.04846627 0.13703425 0.04647634 0.20047021 0.08173754 0.17467327
-0.09757581 0.1939238 0.11869094 0.30822113 0.18470849 0.21744236 0.11303106 0.13786003
0.19419047 0.07472906 -0.021130184 0.15774861 -0.004710234 0.18924099 -0.078158446 0.33726624
-0.28157035 -0.21711648 -0.14269097 0.30585662 0.19688796 0.07628146 -0.28260848 -0.16479114
0.14983116 -0.22501609 0.2017115 -0.19817658 -0.26761496 0.17413332 0.029638711 0.015792236
0.11962255 0.29428872 0.055206135 0.26337844 0.287411 0.1720858 -0.22345577 0.2347679
0.06435124 0.11692005 -0.04750642 -0.0008957246 0.31497237 0.22179314 -0.21765468 0.21365805
0.34559405 -0.010859482 -0.10939803 0.3668995 -0.15470637 0.39470357 0.28945798 0.38120148
0.1572091 0.14297739 -0.019690493 -0.21931976 0.0055676657 -0.32186803 0.104248874 -0.04743558
-0.08740824 0.054025117 -0.041314658 0.11947579 0.036976736 0.029004857 0.3251621 0.0027303675
0.05600341 0.18939765 -0.16908213 0.053065635 0.30953953 0.033859525 0.0967578 -0.018552415
0.3146508 -0.19835554 0.027604505 -0.2443775 0.0032940886 0.23199956 0.033206414 0.15959305
-0.14922678 0.10584096 0.24133587 0.028285563 0.011426157 0.013974642 0.094048046 0.0038551954
0.23951797 0.091641605 -0.106628515 0.21906897 -0.20900157 -0.0851223 -0.26806182 -0.2272381
0.22755535 0.060510576 0.24958159 0.13602805 -0.0019266623 0.11507617 -0.0060279896 0.24658024
-0.103653446 -0.17741358 -0.012926055 -0.16694309 -0.26164034 0.046725787 0.2606453 0.21381542
-0.0048732413 -0.39471567 0.07860986 -0.19532104 0.29346704 0.0040504504 -0.06393168 -0.061233994
0.024366712 -0.16275144 -0.14835529 0.11302163 -0.17465584 -0.12440968 0.24611188 0.15673487
0.17044468 0.16246371 0.101081535 0.0043717613 -0.08862497 -0.014028092 -0.062404655 -0.13949697
0.13970551 0.04944685 -0.30086508 0.08778915 -0.0696501 -0.25664994 0.11955774 0.2641827
00000000: 224a 4c3e 3d25 16bc 8a5c 413e 029c cf3d
00000010: 0b41 1bbe a934 59be 8fc1 3fbd 2982 adba
00000020: 28f7 2fbe 79db 10bd 7304 51be d461 93be
00000030: 8aee 83be 2d40 ad3e 08ee 473e 66df 3fbd
00000040: 156e 093e c65a 37bb 1ea1 d13d 80b0 c7bd
00000050: 374d c93d 4fb8 65be d47d 23be 6125 bb3d
00000060: 697d 72ba 11f3 943e 724d 9b3e 03af 993e
00000070: 1a48 74bd 1e72 93bd 242d 803e b618 ad3c
00000080: d697 ec3b 22da 123e f8f8 393e 158d 12bd
00000090: 2dbd a0bd d470 043e 9724 a0bd 76f0 6d3e
000000a0: c107 cc3d 16d2 68bd 49eb c63d 84a5 fc3c
000000b0: 550d b6bd 991e ab3e 203a 84be d988 a8bd
000000c0: 2a3f 323d d4f2 24be 0315 dd3c c83e 62be
000000d0: 9e4e 903e ffe9 433d fb08 063d 19a9 843e
000000e0: 9139 e73d eee8 7f3c 312e 47be c36f afbe
000000f0: b34c 88be 2bcf 2f3c ced8 993d 9a90 0b3e
00000100: 7844 033e c419 993d 3715 5bbe 9554 8abe
00000110: c6d3 acbd 09dd 45be bfd9 143e f308 3bbc
00000120: 2d02 e13c e3de 07bd 74f7 4abe cac5 1d3e
00000130: db92 1c3d fc5e 843e e893 f53c 1c71 853e
00000140: 3818 4bbe 9f69 843d 00f0 7dba f587 eb3d
00000150: ad4c 04bb e13a 98be 57e7 d63d 55f8 8b3e
00000160: 773f 52be 1c12 8fbe 23d6 efbb 58f2 03be
00000170: b5ed a3be ddd0 6c3e a8c3 603d 7d06 15be
00000180: b353 af3e b403 bdbb 9184 46bd b552 0c3e
00000190: fa5d 3e3d 1048 4d3e 0366 a73d 8ddd 323e
000001a0: d4d5 c7bd f693 463e 3c14 f33d 29cf 9d3e
000001b0: 3924 3d3e 36a9 5e3e d47c e73d 2e2b 0d3e
000001c0: ded9 463e 8d0b 993d 3519 adbc da88 213e
000001d0: 4e58 9abb 64c8 413e 8911 a0bd 29ae ac3e
000001e0: fd29 90be c853 5ebe 951d 12be 3d99 9c3e
000001f0: ff9c 493e 7439 9c3d 0fb2 90be 02bf 28be
00000200: 576d 193e 9e6a 66be 768d 4e3e cdee 4abe
00000210: d404 89be 0150 323e e2cc f23c b85e 813c
00000220: abfc f43d 03ad 963e d41f 623d 8ad9 863e
00000230: 8927 933e 4337 303e 97d1 64be ff66 703e
00000240: 95ca 833d c773 ef3d 1896 42bd 0fcf 6aba
00000250: 0f44 a13e be1d 633e dee0 5ebe 2dc9 5a3e
00000260: b4f1 b03e f8eb 31bc 130c e0bd 40da bb3e
00000270: 596b 1ebe 9616 ca3e d633 943e d72c c33e
00000280: 6cfb 203e aa68 123e f54d a1bc 5c95 60be
00000290: f770 b63b e3cb a4be 6f80 d53d d04b 42bd
000002a0: 1703 b3bd 7149 5d3d 8f39 29bd b9af f43d
000002b0: eb74 173d 989b ed3c a67b a63e f7ef 323b
000002c0: d563 653d 75f1 413e de23 2dbe 5a5b 593d
000002d0: f77b 9e3e 49b0 0a3d f428 c63d 3cfb 97bc
000002e0: e919 a13e b71d 4bbe d822 e23c 183e 7abe
000002f0: a3e1 573b 4b91 6d3e 7303 083d 5c6c 233e
00000300: e8ce 18be 25c3 d83d c020 773e 20b7 e73c
00000310: c734 3b3c e6f5 643c 439c c03d 72a7 7c3b
00000320: 3344 753e 98ae bb3d 0d60 dabd 9e53 603e
00000330: 8204 56be 9a54 aebd 663f 89be 1bb1 68be
00000340: 4504 693e f0d9 773d 5192 7f3e f04a 0b3e
00000350: 0f88 fcba 0ead eb3d 7186 c5bb 887f 7c3e
00000360: 4248 d4bd e8ab 35be cec7 53bc 21f3 2abe
00000370: b9f5 85be 8a63 3f3d 4d73 853e 6ef2 5a3e
00000380: b6af 9fbb 2c18 cabe 35fe a03d 3d02 48be
00000390: 5041 963e a4b9 843b 9dee 82bd 7fd0 7abd
000003a0: b39c c73c 50a8 26be 73ea 17be e277 e73d
000003b0: fbd8 32be 81ca febd c104 7c3e 1b7f 203e
000003c0: 0d89 2e3e e35c 263e d603 cf3d fe40 8f3b
000003d0: 0281 b5bd 15d6 65bc 069c 7fbd 4bd8 0ebe
000003e0: f60e 0f3e c888 4a3d fd0a 9abe ccca b33d
000003f0: b6a4 8ebd 9f67 83be b0da f43d f442 873e

weight f4 [200, 400]
0.0003907924 -0.040944275 -0.0019798449 -0.002626023 0.036022965 -0.051095217 -0.042717755 -0.033411123
-0.013461951 -0.03324321 -0.019641113 -0.019520137 -0.03215225 0.037271354 -0.040333994 0.0059211887
-0.04541732 -0.03906699 0.02320432 -0.0024585414 0.01356062 -0.031584494 0.00027348733 -0.0029694515
-0.021597892 -0.029551934 0.0390495 -0.012891312 0.03769339 -0.02796697 0.0015163046 -0.0052873204
0.020724045 -0.025305998 -0.05177666 0.03964033 -0.03285036 0.0012787163 0.022905916 0.034833632
0.02550113 0.032042783 -0.03513033 0.043953832 0.038922925 0.02289043 0.0064986846 0.021026654
0.003166271 -0.050639775 -0.015427193 0.0024296206 -0.011568808 -0.0067119775 0.021153193 0.039226595
-0.0013800904 0.03519146 0.0077338424 0.033131357 0.01939248 0.012826354 0.007428048 0.003990096
-0.0036976684 -0.035381872 0.00094572315 -0.021407755 0.026436571 0.033080515 -0.044594582 -0.0009102193
0.0047427253 -0.027438102 -0.050109934 0.018338135 -0.027619803 0.033882447 0.00068366015 0.0007966334
5.389069e-05 -0.025453316 -0.026513731 -0.024143478 0.00053470733 0.035149306 0.007967434 0.044862837
0.006569977 0.011445066 -0.03365338 0.03737991 0.036825344 -0.038902238 -0.05077925 0.03154865
-0.009263803 0.013714956 -0.0099953795 0.029511316 -0.025689216 0.028098907 -0.0050017172 0.0130846845
-0.048667833 0.013445875 -0.038759857 -0.031582393 -0.041585185 -0.04541618 0.036974315 -0.028084492
0.036989935 0.013356796 0.018962238 0.03291939 -0.04315507 -0.03367371 0.0047189314 -0.013581209
-0.011630116 0.0059758066 -0.051403176 0.04426778 0.0184585 -0.03163777 0.037683733 -0.0022302533
-0.041026004 0.014649751 0.035056315 -0.012163838 -0.02293026 0.009013133 0.011266255 -0.049660478
0.034536075 0.022645315 0.015572281 -0.04609198 -0.04786892 -0.026958294 -0.011206561 0.039140157
-0.0026434802 0.003322539 -0.036007635 -0.00084489025 -0.03700823 0.017300364 -0.01140081 0.019479917
-0.020570455 0.01144579 -0.028903553 0.016545096 -0.0228441 -0.033529736 -0.017357394 -0.02205933
-0.0530245 -0.049125087 0.026001023 -0.023335047 -0.011901619 0.038331524 -0.0068100076 -0.052610103
0.00040362103 0.0074359756 0.002117818 -0.049367838 0.03618162 -0.0077760615 0.01630874 0.03593263
0.016845161 -0.036943648 0.01126543 -0.028516404 0.0074026682 0.037492868 -0.028194938 -0.044905562
0.022982556 0.02555743 0.009310842 0.029117119 0.034432475 -0.03342131 0.0069594258 -0.026031272
-0.029941432 0.0040015387 -0.035771865 0.040205393 0.035915002 -0.045736324 -0.024490383 -0.050666366
-0.043136995 0.0015530462 0.04669061 0.020292252 -0.050154552 -0.0045210104 0.04352163 0.0021951904
0.036083452 0.034657013 -0.028985249 0.019886002 -0.028458929 -0.03875241 -0.03449802 0.008545026
0.046609335 0.00955755 0.028748078 -0.044173196 -0.0391504 -0.007426835 0.012870784 -0.03169661
0.041120835 -0.036082435 -0.0433133 0.035267178 -0.014771599 -0.038373094 -0.0043074386 -0.008707106
0.036402665 -0.037698217 -0.04110614 -0.051289655 -0.03136912 0.03361185 0.028643847 -0.02678912
0.013819965 0.009053836 -0.0024778943 -0.009809762 -0.011540489 -0.014424453 0.024346668 0.003115035
0.036664885 -0.007825257 0.01035006 -0.049102087 -0.030228382 -0.028463764 -0.028976917 -0.022420662
00000000: 45e3 cc39 2fb5 27bd 49c0 01bb 5b19 2cbb
00000010: d18c 133d 3849 51bd d0f8 2ebd 1ada 08bd
00000020: 848f 5cbc 082a 08bd 66e6 a0bc b2e8 9fbc
00000030: 14b2 03bd d9a9 183d 4235 25bd 8806 c23b
00000040: 8307 3abd b504 20bd fc16 be3c 7b1f 21bb
00000050: 5d2d 5e3c be5e 01bd d962 8f39 219b 42bb
00000060: 10ee b0bc e616 f2bc 5ef2 1f3d 1536 53bc
00000070: 6264 1a3d fd1a e5bc bdbe c63a 4241 adbb
00000080: 79c5 a93c 864e cfbc c313 54bd e65d 223d
00000090: 198e 06bd 999a a73a 30a5 bb3c b6ad 0e3d
000000a0: bfe7 d03c 4b3f 033d d2e4 0fbd ef08 343d
000000b0: a56d 1f3d b684 bb3c ebf2 d43b 1740 ac3c
000000c0: 3681 4f3b a76b 4fbd 56c2 7cbc 453a 1f3b
000000d0: 198b 3dbc 26f0 dbbb 7649 ad3c 11ac 203d
000000e0: 26e4 b4ba ec24 103d 2c6c fd3b bfb4 073d
000000f0: fadc 9e3c a125 523c fc66 f33b 5abf 823b
00000100: 9554 72bb 95ec 10bd 68ea 773a 515f afbc
00000110: 8291 d83c 6f7f 073d cfa8 36bd c99b 6eba
00000120: dd68 9b3b dfc5 e0bc 1340 4dbd db39 963c
00000130: ed42 e2bc 52c8 0a3d a837 333a 2ad5 503a
00000140: b008 6238 7983 d0bc 5333 d9bc 8bc8 c5bc
00000150: 9a2b 0c3a b8f8 0f3d d789 023c 18c2 373d
00000160: f648 d73b 1684 3b3c 20d8 09bd ad1b 193d
00000170: 2cd6 163d f457 1fbd e7fd 4fbd 2839 013d
00000180: 35c7 17bc b2b4 603c a9c3 23bc b7c1 f13c
00000190: 3172 d2bc ae2f e63c 72e5 a3bb 2561 563c
000001a0: ec57 47bd 164c 5c3c a8c2 1ebd 8a5c 01bd
000001b0: 3a55 2abd 5106 3abd 6172 173d 7311 e6bc
000001c0: c282 173d 76d6 5a3c b256 9b3c 7bd6 063d
000001d0: 5fc3 30bd 72ed 09bd 44a1 9a3b b883 5ebc
000001e0: 3e8c 3ebc b3d0 c33b 238c 52bd 2252 353d
000001f0: 4836 973c 9b96 01bd 425a 1a3d 7129 12bb
00000200: e20a 28bd 8205 703c 3697 0f3d d64a 47bc
00000210: 3ed8 bbbc d2ab 133c 1996 383c c968 4bbd
00000220: b375 0d3d ab82 b93c e122 7f3c f2ca 3cbd
00000230: 3312 44bd a4d7 dcbc b99b 37bc 6e51 203d
00000240: 3d3e 2dbb f4be 593b be7c 13bd a07b 5dba
00000250: f195 17bd 7eb9 8d3c 77ca 3abc 5994 9f3c
00000260: 5f83 a8bc 1f87 3b3c 25c7 ecbc 9589 873c
00000270: 8d23 bbbc 7a56 09bd 1831 8ebc c5b5 b4bc
00000280: 3830 59bd 6337 49bd 1900 d53c 2429 bfbc
00000290: 02ff 42bc 8401 1d3d 7c26 dfbb b17d 57bd
000002a0: 199d d339 7ca9 f33b 17cb 0a3b ee35 4abd
000002b0: 2e33 143d 55ce febb e899 853c 182e 133d
000002c0: ddfe 893c 3952 17bd a392 383c 3c9b e9bc
000002d0: 1592 f23b 1f92 193d 12f9 e6bc e5ee 37bd
000002e0: ea45 bc3c d15d d13c 808c 183c 0687 ee3c
000002f0: 1109 0d3d c9e4 08bd e50b e43b 893f d5bc
00000300: bc47 f5bc 571f 833b 8585 12bd 69ae 243d
00000310: 9c1b 133d 0356 3bbd 0ea0 c8bc 8987 4fbd
00000320: 6bb0 30bd 958f cb3a a73e 3f3d f03b a63c
00000330: dc6e 4dbd fc24 94bb bd43 323d 2fdd 0f3b
00000340: 3ecc 133d 83f4 0d3d 7972 edbc f8e7 a23c
00000350: b322 e9bc d9ba 1ebd cc4d 0dbd 7000 0c3c
00000360: 6ee9 3e3d 4597 1c3c 1781 eb3c f4ee 34bd
00000370: 2b5c 20bd cf5c f3bb fbdf 523c 4ed4 01bd
00000380: 526e 283d 2dcb 13bd 4969 31bd 5174 103d
00000390: 9404 72bc 1b2d 1dbd 6a25 8dbb 40a8 0ebc
000003a0: f61a 153d 7269 1abd e95e 28bd 1a15 52bd
000003b0: e87c 00bd 94ac 093d 80a6 ea3c db74 dbbc
000003c0: 226d 623c 8a56 143c 2b64 22bb 20b9 20bc
000003d0: 5214 3dbc 8a54 6cbc aa72 c73c 9d25 4c3b
000003e0: eb2d 163d 8235 00bc 4c93 293c 451f 49bd
000003f0: 83a1 f7bc d72c e9bc 0061 edbc 89ab b7bc

bias f4 [200]
-0.021560065 -0.032600224 -0.00832358 -0.024631133 -0.013518159 0.019358374 0.007041612 0.01740199
-0.014267516 -0.03782905 -0.021755818 -0.06729286 0.00035858314 0.03994295 0.0018868207 -0.03980422
-0.024954474 -0.017539378 -0.0091316495 0.0021584954 -0.035564777 0.017265992 -0.046110764 -0.0116191385
0.006612373 -0.00048555978 0.039343063 0.01082023 -0.009117569 -0.016003065 0.0001568454 0.04683491
0.017543416 -0.041714318 -0.02689713 -0.028010413 0.016626226 -0.03256457 -0.010309379 0.016632816
-0.063227534 0.042825077 0.051372003 -0.008571343 -0.01403153 -0.0165361 0.01726059 -0.018535146
-0.009076229 -0.026839245 0.006183305 -0.021941692 -0.008806134 0.00972371 -0.059527036 0.04199797
0.01941987 -0.0020053405 0.07186589 -0.0012923812 0.030587 -0.022481868 0.03170979 0.017829236
-0.0497029 0.0038994693 -0.010530083 0.019325402 -0.02963323 -0.008054358 -0.024056064 0.018505525
0.016706875 0.02991561 0.015362241 0.062341575 0.01542995 0.030884521 -0.04102858 0.06981774
-0.04428438 0.051952165 0.036259625 0.01783225 0.04056613 0.0051513654 -0.0417659 -0.0054829386
0.011076364 0.008240003 0.024448788 0.003507623 -0.0487129 -0.0787689 -0.028322525 -0.029084306
-0.03388674 -0.0037013246 0.025550185 0.033915166 0.02274403 0.034317467 -0.041062854 -0.030443965
-0.018805403 -0.046414837 0.015556203 0.016131349 0.009385207 0.021945463 -0.017433017 0.053131945
-0.054674484 0.012346836 0.021983787 -0.011612395 0.06565099 -0.024729699 0.0012523588 0.00074908475
0.005631051 -0.057544783 0.0282831 0.05057974 -0.0345782 -0.067177214 -0.04681847 0.018196438
-0.031080669 -0.055505186 -0.010974102 -0.005334684 0.022300329 0.035857383 0.046915986 -0.022700775
-0.030445294 0.003674953 -0.03555637 -0.033974543 0.040223554 -0.044960096 0.03930797 -0.022474669
0.03595356 -0.014924069 0.04095777 -0.0045305644 0.033557553 -0.042911354 -0.039745655 -0.05153897
0.008803458 0.024711082 0.015641633 0.036987554 0.03121141 0.06844229 -0.03744839 7.271179e-05
0.03768164 0.045791212 -0.0113728875 0.045624048 0.036310356 -0.003668305 -0.020263279 -0.0019216663
0.0040764324 -0.057893537 0.039642144 -0.022749625 -0.01523671 -0.04235078 0.06346342 0.042951763
-0.027899673 0.020659447 0.05006967 0.033453118 0.035995156 0.053762365 0.058023453 -0.050729398
0.008406515 -0.0097810365 0.025657296 0.02185715 0.008306294 0.044181462 0.05450575 0.029163135
-0.008409554 -0.02482066 0.027264507 -0.008141104 0.028075607 0.040970486 -0.003973598 0.04012916
00000000: bc9e b0bc d087 05bd a05f 08bc 3bc7 c9bc
00000010: 457b 5dbc 7495 9e3c 53bd e63b 9e8e 8e3c
00000020: 4dc2 69bc a2f2 1abd 4239 b2bc d7d0 89bd
00000030: 3700 bc39 389b 233d 324f f73a c009 23bd
00000040: 536d ccbc beae 8fbc ea9c 15bc 8b75 0d3b
00000050: 5fac 11bd 6971 8d3c a4de 3cbd 335e 3ebc
00000060: 9bac d83b bb92 feb9 3126 213d 5547 313c
00000070: db61 15bc dc18 83bc de76 2439 f6d5 3f3d
00000080: 36b7 8f3c a2dc 2abd 5f57 dcbc 1876 e5bc
00000090: b933 883c 6d62 05bd abe8 28bc 8b41 883c
000000a0: 707d 81bd 5969 2f3d 736b 523d d16e 0cbc
000000b0: 81e4 65bc b776 87bc 1566 8d3c 05d7 97bc
000000c0: 77b4 14bc fadd dbbc 529d ca3b 10bf b3bc
000000d0: 9a47 10bc 3250 1f3c 9fd2 73bd 1006 2c3d
000000e0: 6b16 9f3c 086c 03bb 6c2e 933d 1e65 a9ba
000000f0: 9791 fa3c e52b b8bc 20e2 013d 9e0e 923c
00000100: 4595 4bbd 3d8e 7f3b 5f86 2cbc 4e50 9e3c
00000110: 63c1 f2bc 6df6 03bc 3911 c5bc e698 973c
00000120: dbdc 883c 9511 f53c e9b1 7b3c e159 7f3d
00000130: e7cd 7c3c 8901 fd3c 960d 28bd 9afc 8e3d
00000140: 8a63 35bd cbcb 543d f984 143d f014 923c
00000150: ac28 263d c9cc a83b b812 2bbd 39aa b3bb
00000160: a379 353c 1401 073c d348 c83c 26e0 653b
00000170: 2e87 47bd 9751 a1bd a404 e8bc 3642 eebc
00000180: d3cc 0abd ec91 72bb 9f4e d13c a1ea 0a3d
00000190: b051 ba3c 7990 0c3d 8631 28bd 9f65 f9bc
000001a0: ca0d 9abc 7c1d 3ebd 72df 7e3c e425 843c
000001b0: 69c4 193c f9c6 b33c b0cf 8ebc e2a0 593d
000001c0: 5af2 5fbd 624a 4a3c 5817 b43c ea41 3ebc
000001d0: 0774 863d f095 cabc 3026 a43a 3a5e 443a
000001e0: ae84 b83b 14b4 6bbd f6b1 e73c b42c 4f3d
000001f0: dfa1 0dbd 3594 89bd b9c4 3fbd b210 953c
00000200: e39c febc 6859 63bd b8cc 33bc 93ce aebb
00000210: 2eaf b63c 31df 123d fa2a 403d faf6 b9bc
00000220: 6968 f9bc 7bd7 703b 8ea3 11bd e428 0bbd
00000230: 74c1 243d 1428 38bd 6501 213d cc1c b8bc
00000240: 0a44 133d 1584 74bc 56c3 273d 2175 94bb
00000250: a573 093d d1c3 2fbd 57cc 22bd 871a 53bd
00000260: 613c 103c e56e ca3c e222 803c 4380 173d
00000270: 12af ff3c 792b 8c3d 7c63 19bd d87c 9838
00000280: 1058 1a3d 918f 3b3d 5955 3abc 48e0 3a3d
00000290: 2bba 143d f267 70bb 2dff a5bc 6ce0 fbba
000002a0: 9893 853b c621 6dbd cd5f 223d 6c5d babc
000002b0: 65a3 79bc 0378 2dbd 1cf9 813d 30ee 2f3d
000002c0: db8d e4bc 003e a93c db15 4d3d 2306 093d
000002d0: a86f 133d ed35 5c3d 00aa 6d3d a1c9 4fbd
000002e0: 7bbb 093c a440 20bc 402f d23c c40d b33c
000002f0: 1f17 083c 9ff7 343d 6c41 5f3d 87e7 ee3c
00000300: 3ac8 09bc b254 cbbc d159 df3c 4462 05bc
00000310: d1fe e53c abd0 273d f534 82bb 795e 243d

weight f4 [2, 200]
0.049795393 -0.34000987 0.46440974 0.000711466 -0.6225437 0.05665676 0.3725488 -0.31122568
-0.12518536 -1.2053208 -0.5392803 -0.15558943 -0.5259081 0.02656711 -0.06635881 -0.044876847
-0.024773566 -0.17093273 -0.35939437 -0.9740861 -0.135845 -0.61473715 0.012066898 -0.5966425
0.034048304 0.113917984 0.065757856 -0.15980525 0.05252271 -0.20163713 0.07572615 -0.07381724
0.031015165 -0.07644037 0.047489963 -0.11570234 0.30558205 -0.21560636 0.0030898347 0.019802751
-0.25018322 0.082723126 0.47752118 -0.16600378 -0.043622598 -0.27435836 -0.02667977 0.07115484
0.13986957 0.020175507 0.2503249 0.21012552 0.0012824781 -0.27805382 0.06509891 -0.62446076
0.09745952 0.12880987 0.294297 0.15226595 0.2944748 0.2508823 0.104476266 0.001475392
-0.06668884 0.04432311 0.0797321 -0.112572305 -0.01997872 -0.23713367 0.04804622 0.0072287787
0.008150649 0.108874485 0.046570115 0.08607938 -0.7774707 0.14780097 -0.19682688 -0.11592734
0.11237232 0.076599635 -0.044653464 -0.12036571 0.13050707 -0.18934093 -0.06729347 0.12154991
0.09369187 -0.47461504 -0.5858203 0.12671718 0.040101506 -0.19961391 0.037882894 0.20736736
-0.2503611 -0.015237658 -1.2882504 -0.13771483 -0.2708256 0.26270643 -0.37321562 0.01211967
0.43023843 0.0539989 -0.16841383 -0.22103131 0.1426045 -0.053048197 0.15892163 0.07006874
-0.25553077 0.2923231 -0.20060344 -0.26013613 0.21100914 -0.15502813 -0.8664102 -0.4956049
-0.121395186 -0.4354278 -0.32261485 0.2410697 0.37574288 -0.2389372 0.05648727 -0.03810803
0.10022639 0.199273 0.06217341 -0.09756161 0.33255422 0.045429565 0.3400714 -0.37498125
-0.25238073 -0.036778543 0.28556374 -0.041521486 0.069558576 0.01577016 0.15829273 -0.05025541
0.16836096 0.21877648 0.39319167 -1.1715581 0.011957602 0.0547737 0.0056291237 0.0046193847
0.32998165 -1.3280716 -0.0830248 -0.038902126 -0.36764556 -0.20401154 -0.06577768 0.29142204
-0.18913375 0.007499125 0.5051277 0.11056988 -0.1982351 -0.09600614 0.0051968247 0.06335289
-0.035941973 -0.90616703 0.1391874 -0.042298794 0.104216926 0.020597212 0.11752921 0.16265576
-0.56581247 -0.2484087 -0.03832034 0.07315067 0.13828497 0.08190107 0.07545309 -0.33647558
0.05418683 -1.124024 -0.41944483 -0.22085132 0.30722567 0.029533831 -0.016642999 0.05249749
-0.16835186 -0.37754005 0.09505632 -0.21961479 -0.007334734 -0.23676236 -0.5772992 -0.00836933
-0.012696495 -0.10869655 -0.13717431 0.06849792 -0.028414104 -0.02351575 0.19732897 0.33810636
0.1412476 0.028858544 -0.03326392 -0.21407476 -0.18056951 0.09953031 -0.44522065 0.15803021
-0.040183403 -0.2935466 -0.05668471 -0.10250974 0.17912476 -0.13156612 -0.04198584 -0.2804375
0.007201994 -0.09575271 0.03468047 0.15734166 0.013509394 -0.3718723 -0.26984313 -0.28912213
0.083829366 0.15365817 -0.10178315 -0.31605783 0.63989913 0.16717206 -0.59897274 -0.036610577
-0.23674712 -0.0018038987 0.87190944 0.1865711 -0.43546993 0.3513765 0.16846898 -0.1052933
0.19513986 -0.06624415 0.4666302 -0.14328556 -0.050493907 0.2881597 -0.14520079 0.019208835
00000000: 41f6 4b3d c615 aebe 1dc7 ed3e ad81 3a3a
00000010: 065f 1fbf eb10 683d b7be be3e f958 9fbe
00000020: 9730 00be f447 9abf 460e 0abf d652 1fbe
00000030: eaa1 06bf 45a3 d93c 21e7 87bd c9d0 37bd
00000040: eff1 cabc fd08 2fbe 8a02 b8be b55d 79bf
00000050: f41a 0bbe 6a5f 1dbf 3db4 453c 90bd 18bf
00000060: 3c76 0b3d d54d e93d 0eac 863d fda3 23be
00000070: 0e22 573d f779 4ebe 5016 9b3d 7e2d 97bd
00000080: 8413 fe3c c58c 9cbd d684 423d 59f5 ecbd
00000090: 4075 9c3e eac7 5cbe d37e 4a3b 6139 a23c
000000a0: 0418 80be be6a a93d a87d f43e e5fc 29be
000000b0: 9cad 32bd b378 8cbe 888f dabc a1b9 913d
000000c0: f839 0f3e 1b47 a53c 962a 803e 252b 573e
000000d0: d318 a83a 125d 8ebe 9452 853d a9dc 1fbf
000000e0: db98 c73d bce6 033e 19ae 963e 9beb 1b3e
000000f0: 67c5 963e a573 803e a7f7 d53d f161 c13a
00000100: 2994 88bd 268c 353d 954a a33d 4f8c e6bd
00000110: 6aaa a3bc 2bd3 72be 1dcc 443d 64df ec3b
00000120: 4d8a 053c 96f9 de3d 4ec0 3e3d 634a b03d
00000130: 5208 47bf 2359 173e fc8c 49be 506b edbd
00000140: 7523 e63d 45e0 9c3d 8de6 36bd 4c82 f6bd
00000150: a5a3 053e 97e2 41be 29d1 89bd 29ef f83d
00000160: 86e1 bf3d be00 f3be 52f8 15bf 26c2 013e
00000170: 7a41 243d 9767 4cbe 182b 1b3d 1c58 543e
00000180: 552f 80be 5fa7 79bc 64e5 a4bf 1e05 0dbe
00000190: a7a9 8abe 7581 863e 1e16 bfbe 9591 463c
000001a0: 3648 dc3e f32d 5d3d ad74 2cbe 0856 62be
000001b0: ea06 123e 1149 59bd 5abc 223e 3380 8f3d
000001c0: eed4 82be 60ab 953e fd6a 4dbe 9030 85be
000001d0: c812 583e b2bf 1ebe 0fcd 5dbf edbf fdbe
000001e0: 0a9e f8bd 65f0 debe c62d a5be fada 763e
000001f0: 5f61 c03e f4ab 74be 325f 673d 2a17 1cbd
00000200: 7e43 cd3d 390e 4c3e 8ca9 7e3d 62ce c7bd
00000210: 8c44 aa3e 5a14 3a3d d71d ae3e 8bfd bfbe
00000220: 0c38 81be 19a5 16bd 6935 923e 6f12 2abd
00000230: ba74 8e3d 6c30 813c 7d17 223e 9ed8 4dbd
00000240: d166 2c3e f106 603e 6b50 c93e 9ef5 95bf
00000250: d1e9 433c 635a 603d 8374 b83b 355e 973b
00000260: 5bf3 a83e 40fe a9bf e808 aabd d657 1fbd
00000270: 0a3c bcbe 67e8 50be 73b6 86bd 4535 953e
00000280: 47ac 41be 38bb f53b 0d50 013f 7672 e23d
00000290: 24fe 4abe de9e c4bd 204a aa3b 29bf 813d
000002a0: e437 13bd 90fa 67bf 2487 0e3e 8041 2dbd
000002b0: af6f d53d 7cbb a83c 28b3 f03d 3b8f 263e
000002c0: 16d9 10bf da5e 7ebe caf5 1cbd 05d0 953d
000002d0: 939a 0d3e c0bb a73d 2687 9a3d 8746 acbe
000002e0: 02f3 5d3d 05e0 8fbf 79c1 d6be d926 62be
000002f0: af4c 9d3e eff0 f13c e656 88bc 9c07 573d
00000300: 6e64 2cbe ee4c c1be e3ac c23d b3e2 60be
00000310: 3558 f0bb d571 72be e1c9 13bf 841f 09bc
00000320: f604 50bc 4c9c debd 6c77 0cbe a348 8c3d
00000330: b2c4 e8bc 1aa4 c0bc 9b10 4a3e 471c ad3e
00000340: 36a3 103e c168 ec3c c03f 08bd 6a36 5bbe
00000350: 37e7 38be 8cd6 cb3d f6f3 e3be acd2 213e
00000360: 5a97 24bd bd4b 96be 3a2e 68bd a0f0 d1bd
00000370: 7b6c 373e 45b9 06be 58f9 2bbd 8195 8fbe
00000380: b4fe eb3b ff19 c4bd 1c0d 0e3d 2c1e 213e
00000390: 8156 5d3c 0c66 bebe e128 8abe d107 94be
000003a0: bbae ab3d 9158 1d3e af73 d0bd 55d2 a1be
000003b0: 6ed0 233f 272f 2b3e 4756 19bf f9f4 15bd
000003c0: d66d 72be cc70 ecba 7535 5f3f 7f0c 3f3e
000003d0: eaf5 debe 9fe7 b33e 2283 2c3e 03a4 d7bd
000003e0: bed2 473e 03ab 87bd 27ea ee3e 73b9 12be
000003f0: b3d2 4ebd ab89 933e 84af 14be d95b 9d3c

bias f4 [2]
0.079478815 0.051451325
00000000: cac5 a23d a0be 523d
