el2805_lab2_instructions_2021/problem2/neural-network-2-critic.pth (torch, 340567 bytes, 5 tensors)

weight f4 [400, 8]
0.09750311 -1.2900475 0.1406756 -0.30065942 0.4074708 -0.06973872 -0.37687334 -0.17758724
0.32281902 -1.3314357 -0.24106239 -0.47539106 0.6987312 -0.12778027 -0.28548026 0.36085635
-0.17354654 -1.1141566 -0.55013186 -0.26264948 -0.6198505 0.69218343 -0.3407327 0.043842893
0.057229884 0.077468485 -1.4367293 0.01953803 -0.4120343 -0.41214213 0.44385254 -0.096355446
0.24531424 -0.2473786 -0.32535282 0.53941137 1.0513865 -0.28548956 0.0020378658 -0.17785092
-0.092315495 -1.8612032 0.09543277 -0.8440803 0.026448837 -0.58113265 -0.0128700165 0.087719984
-0.39498577 -0.011665609 -0.5537042 0.6319316 0.08537842 -0.06603784 0.43316492 -0.15506367
0.38887385 0.2811422 0.44102186 -0.54480654 0.47646058 0.98813057 -0.057886258 -0.42149
-0.15770137 -0.025299685 0.5474428 0.018874409 1.2738632 0.4995522 -0.124825194 -0.35043204
-0.07552607 -0.8287708 0.07043197 -0.14982614 -0.5392456 0.5686957 0.14655606 -0.4279024
0.09102072 -3.053678 -0.20874041 -0.33767244 -0.05858811 -0.46491426 0.12688619 0.097055085
-0.33724713 0.43940347 0.059632294 -0.46846333 -0.54231584 0.33174077 0.24409613 -0.5528126
0.095998086 -1.4582942 -0.33535603 0.2535672 -0.24602535 0.4134082 0.3307285 -0.11426862
-0.015645828 0.0015231057 -0.46456853 0.49360335 0.43325645 -0.6878334 -0.40257508 0.27952182
0.38478163 -0.010274061 -0.63400507 -0.47565627 -0.26562616 -0.04754251 0.030260636 -0.41586652
0.6214774 -0.7638974 -0.8303751 -0.2635167 0.1351071 0.28661963 -0.19241205 0.44277054
0.19208983 0.17424102 -0.16405065 -0.2090839 -0.8135958 -0.3506481 0.5335894 -0.5382529
-0.8580433 -0.1613182 -0.4528904 -0.07370984 -0.011656302 -0.18344125 0.002271216 -0.23923452
0.14483668 -0.019054072 0.48778486 1.3481889 1.204101 0.6519553 0.1740397 0.30019552
-0.11944446 -0.25473028 -0.30058652 1.7868739 -0.5435967 -0.23664635 -0.008257567 0.4730581
-0.017853078 -0.30229107 0.49615175 1.1249936 0.33195502 -0.050768297 0.36305615 -0.300462
-0.091954894 -0.35175923 -0.9336623 0.79487234 0.6380648 -0.76545054 0.11962172 -0.52652353
0.17876351 -0.43422022 -0.19391169 -0.39591494 0.038164042 0.66495967 0.14758056 -0.12682837
0.18622404 -0.08943501 -0.47677872 -0.29715335 0.08683623 0.67971134 -0.28187427 -0.068282604
0.25293744 -0.22939108 0.3002532 -0.51971656 -0.7512182 -0.021987086 0.33993185 -0.37822336
0.10870035 -0.21434067 -0.34787107 -0.020163737 0.5905159 0.2503597 -0.027062235 -0.2789523
0.03179515 -0.29618782 -0.8730802 0.7237463 0.11922425 0.35987923 0.05839881 0.28089747
-0.531164 -0.233345 0.33531684 -0.068434544 0.2622274 0.021424253 0.15133336 0.32468596
-0.14901444 0.19644791 -0.22714822 -0.09802898 0.34003338 -0.88284403 -0.56663316 -0.0037302382
0.38567144 0.24887203 -0.356255 -0.0002374345 0.33843556 0.3412135 0.18657087 0.0060141715
-0.12975074 -0.24407385 -0.150275 0.17602295 -0.40780398 0.6764877 0.13788724 -0.56475836
0.043145653 -0.03429464 -0.28623936 -0.8631818 0.82448745 0.8873053 -0.4154647 0.0036986829
00000000: b6af c73d 4720 a5bf 440d 103e 08f0 99be
00000010: 03a0 d03e 2dd3 8ebd 8bf5 c0be 6ed9 35be
00000020: 8948 a53e 7c6c aabf 0fd9 76be 7566 f3be
00000030: 0ce0 323f d5d8 02be 782a 92be 2ac2 b83e
00000040: 2fb6 31be af9c 8ebf 71d5 0cbf fe79 86be
00000050: 86ae 1ebf ef32 313f 8474 aebe 9b94 333d
00000060: e269 6a3d cca7 9e3d bfe6 b7bf 380e a03c
00000070: 29f6 d2be 4b04 d3be a440 e33e 0156 c5bd
00000080: a833 7b3e d150 7dbe a594 a6be dd16 0a3f
00000090: d593 863f b02b 92be b78d 053b 8d1e 36be
000000a0: e80f bdbd e83b eebf 4272 c33d a615 58bf
000000b0: 3bab d83c 1cc5 14bf c3dc 52bc 89a6 b33d
000000c0: 933b cabe 1c21 3fbc 8fbf 0dbf 45c6 213f
000000d0: e2da ae3d d93e 87bd cbc7 dd3e 03c9 1ebe
000000e0: 791a c73e dff1 8f3e 9ecd e13e 7178 0bbf
000000f0: a4f2 f33e 20f6 7c3f 241a 6dbd 8acd d7be
00000100: 787c 21be 4941 cfbc 3625 0c3f 819e 9a3c
00000110: f30d a33f 4ec5 ff3e 5aa4 ffbd d46b b3be
00000120: 6aad 9abd 532a 54bf a33e 903d 066c 19be
00000130: 000c 0abf 0b96 113f cb12 163e 0616 dbbe
00000140: 1269 ba3d 766f 43c0 0cc0 55be 67e3 acbe
00000150: 16fa 6fbd 3e09 eebe 74ee 013e d1c4 c63d
00000160: a8ab acbe 7ef9 e03e fe40 743d 6dda efbe
00000170: 36d5 0abf edd9 a93e 56f4 793e 2085 0dbf
00000180: a59a c43d 62a9 babf c9b3 abbe 8fd3 813e
00000190: 12ee 7bbe 3daa d33e 3f55 a93e ab05 eabd
000001a0: ae2b 80bc f2a2 c73a eddb edbe 94b9 fc3e
000001b0: cad3 dd3e da15 30bf 521e cebe 7c1d 8f3e
000001c0: 1902 c53e 8954 28bc 284e 22bf 3889 f3be
000001d0: 2700 88be efbb 42bd 27e5 f73c 75ec d4be
000001e0: 2519 1f3f c88e 43bf 7693 54bf a9eb 86be
000001f0: 8459 0a3e cfbf 923e aa07 45be d2b2 e23e
00000200: 32b3 443e 3d6c 323e e5fc 27be 171a 56be
00000210: d047 50bf 2688 b3be 5199 083f f1ca 09bf
00000220: baa8 5bbf 9930 25be 40e1 e7be 2ff5 96bd
00000230: 13fa 3ebc 06d8 3bbe aed8 143b e5f9 74be
00000240: 1150 143e 4917 9cbc f0be f93e 7491 ac3f
00000250: fb1f 9a3f 8be6 263f 7737 323e 3ab3 993e
00000260: 4c9f f4bd 026c 82be 7ae6 99be 49b8 e43f
00000270: 2729 0bbf 6c53 72be bf4a 07bc ac34 f23e
00000280: 9e40 92bc e5c5 9abe 9a07 fe3e caff 8f3f
00000290: 02f6 a93e 6bf2 4fbd 7fe2 b93e 28d6 99be
000002a0: d952 bcbd c919 b4be 7e04 6fbf c17c 4b3f
000002b0: 3758 233f 91f4 43bf 3bfc f43d 3fca 06bf
000002c0: c80d 373e 1d52 debe c990 46be 5db5 cabe
000002d0: e651 1c3d cc3a 2a3f 5c1f 173e 4cdf 01be
000002e0: 84b1 3e3e b429 b7bd 571c f4be 7c24 98be
000002f0: 31d7 b13d 9001 2e3f d351 90be c0d7 8bbd
00000300: 0481 813e 7fe5 6abe caba 993e 250c 05bf
00000310: d64f 40bf 431e b4bc 8c0b ae3e 7ea6 c1be
00000320: 4a9e de3d 1f7c 5bbe 281c b2be 6c2e a5bc
00000330: 0d2c 173f 262f 803e 9fb1 ddbc d6d2 8ebe
00000340: a23b 023d eea5 97be 2f82 5fbf 7047 393f
00000350: d82b f43d 1742 b83e 9733 6f3d cbd1 8f3e
00000360: 5dfa 07bf fef1 6ebe a6ae ab3e 6927 8cbd
00000370: ab42 863e ea81 af3c 22f7 1a3e 3d3d a63e
00000380: 3e97 18be a429 493e 8b99 68be 6bc3 c8bd
00000390: db18 ae3e 1102 62bf df0e 11bf 0377 74bb
000003a0: ba76 c53e 4fd8 7e3e 0e67 b6be d7f7 78b9
000003b0: 6d47 ad3e 89b3 ae3e 6f0c 3f3e 8712 c53b
000003c0: 61dd 04be 7fee 79be b1e1 19be 5c3f 343e
000003d0: afcb d0be 4c2e 2d3f 5032 0d3e 0194 10bf
000003e0: 7fb9 303d 8978 0cbd f78d 92be 7cf9 5cbf
000003f0: 9c11 533f 7126 633f cab7 d4be 9a65 723b

bias f4 [400]
0.2604613 -0.17238934 -0.14037746 0.01797899 0.0017399073 0.001043484 -0.4294927 -0.34725073
-0.2665248 0.17212492 0.17771336 -0.19816089 -0.3371099 -0.011535918 -0.06642707 -0.3665797
-0.41644874 0.0005341036 -0.13173224 0.109575294 -0.2725616 0.019395635 0.13126045 0.062007904
-0.45566207 0.09108001 0.3688856 0.15808666 -0.00042195362 -0.011160454 0.28780496 0.10820332
-0.039334264 -0.11091555 -0.1801753 -0.38688767 -0.32130972 -0.19726759 0.22231145 -0.05640753
0.013138121 -0.36695993 -0.48578438 0.04042487 -0.110037744 0.2515603 -0.44985485 0.085457854
-0.28366777 0.049157407 -0.28099018 0.24241 -0.54938674 -0.3888782 0.22329132 -0.47402623
-0.1390871 0.074241206 -0.24342595 0.13206421 -0.07593918 -0.12202253 0.032337792 -0.08984399
-0.2171519 0.0791437 -0.12563783 -0.35176638 0.021227993 -0.16604769 -0.37510967 -0.414859
-0.41869646 0.15491034 -0.0014813262 0.09138645 -0.32776588 0.05487793 -0.40111378 -0.21538384
0.056814205 -0.212285 -0.40367776 -0.17328529 -0.5243768 -0.527924 -0.36294833 0.2567601
0.044370104 -0.023609262 -0.12950407 -0.10795948 0.14360997 0.22176068 0.030467939 -0.27901345
-0.13996927 -0.43189076 -0.054016534 0.0100856805 0.06572825 0.1498664 0.00020972487 -0.28642273
-0.22617695 -0.058645923 -0.5249827 -0.39183208 -0.30761644 -0.58641344 -0.4537315 -0.11210531
-0.15698302 0.000302752 0.032509536 -0.18948711 0.1660448 -0.05155525 -0.11770808 -0.2685502
0.011335227 0.18096828 -0.22765851 -0.19986087 0.05206783 0.12761717 0.0009999025 0.08556208
0.2036033 -0.3421701 -0.40308714 -0.17690116 -0.1685098 0.1025275 -0.0069212015 0.03708799
0.007098907 -0.38892394 -0.1911981 -0.002784182 -0.14034317 0.16630493 -0.3242929 -0.121143065
-0.030937554 0.00035287728 -0.35102937 0.019170076 -0.38260466 0.080829866 0.0050324383 0.035430484
0.17445551 0.092956744 -0.13043343 0.049282286 -0.26207355 -0.41651535 -0.3213872 -0.3677672
-0.16966172 0.13631402 -0.38165048 0.0133863 -0.21601173 0.114994794 -0.117066465 -0.05280194
0.0042350166 -0.18981321 0.055075616 0.014257052 0.006405004 -0.07346488 -0.008566426 -0.5747238
-0.22213577 0.22780807 -0.048760425 -0.4147011 -0.1343212 0.063150436 0.19346806 -0.27158886
0.19737627 0.20059644 0.05321937 0.17062582 -0.02813421 -0.109020084 -0.28443363 -0.20405383
-0.350019 -0.11280772 0.14641547 -0.38892418 -0.27838442 0.021781472 0.25877872 -0.11299679
-0.11533062 -0.036188126 -0.38272926 0.03815385 -0.39312953 0.13796678 -0.10462207 -0.29084754
-0.18571551 -0.5119827 0.32151917 -0.10999686 0.061943147 -0.42856455 -0.090851136 -0.41150397
-0.04333648 0.011855184 -0.44327384 -0.2932884 0.0004569409 -0.004777344 0.0882006 -0.3902388
-0.2629939 -0.4212249 -0.5411935 0.04174894 0.05458369 -0.3751256 0.110281184 0.05665289
-0.17494595 0.05658671 -0.18759471 -0.21500483 -0.44225988 -0.37445828 -0.15700434 -0.13337857
-0.31307846 0.102761604 -0.004194791 0.083111525 -0.26232246 -0.019847494 -0.06753802 -0.00092694303
-0.4121 0.28931472 0.0053551216 -0.009565807 -0.078535825 -0.20498864 -0.21334629 -0.29675445
00000000: 2f5b 853e d586 30be 1cbf 0fbe ad48 933c
00000010: 9a0d e43a 83c5 883a 78e6 dbbe d9ca b1be
00000020: f075 88be 8441 303e 7efa 353e b0ea 4abe
00000030: ab99 acbe 2601 3dbc ea0a 88bd 56b0 bbbe
00000040: c538 d5be 1603 0c3a d1e4 06be 0369 e03d
00000050: 328d 8bbe 98e3 9e3c 2469 063e 00fc 7d3d
00000060: 8a4c e9be 2888 ba3d 93de bc3e 78e1 213e
00000070: a839 ddb9 56da 36bc 2c5b 933e b499 dd3d
00000080: f71c 21bd b127 e3bd e07f 38be 2416 c6be
00000090: b582 a4be 8400 4abe 9da5 633e 950b 67bd
000000a0: 4641 573c 2ce2 bbbe bbb8 f8be 8c94 253d
000000b0: 785b e1bd 83cc 803e 6053 e6be 8704 af3d
000000c0: e73c 91be 4759 493d f2dd 8fbe 543a 783e
000000d0: 9ca4 0cbf 0b1b c7be 7ba6 643e 91b3 f2be
000000e0: d96c 0ebe c60b 983d a744 79be d73b 073e
000000f0: 0086 9bbd f3e6 f9bd a274 043d 2000 b8bd
00000100: 115d 5ebe 1816 a23d 34a7 00be b91a b4be
00000110: 54e6 ad3c 6808 2abe 600e c0be 6668 d4be
00000120: 625f d6be d1a0 1e3e 0f29 c2ba d228 bb3d
00000130: eed0 a7be aec7 603d c95e cdbe 958d 5cbe
00000140: 03b6 683d 3d61 59be daae cebe b371 31be
00000150: 8f3d 06bf 0726 07bf 5dd4 b9be 0f76 833e
00000160: 6dbd 353d 3668 c1bc b79c 04be dc19 ddbd
00000170: 7e0e 133e 3b15 633e e697 f93c dada 8ebe
00000180: 1b54 0fbe c920 ddbe 7140 5dbd 693e 253c
00000190: 889c 863d 9476 193e 97e9 5b39 00a6 92be
000001a0: ee9a 67be b536 70bd 4465 06bf 379e c8be
000001b0: e77f 9dbe 311f 16bf 7f4f e8be 7897 e5bd
000001c0: 28c0 20be b0ba 9e39 b828 053d e908 42be
000001d0: a607 2a3e 992b 53bd ef10 f1bd 697f 89be
000001e0: 63b7 393c c04f 393e 501f 69be 54a8 4cbe
000001f0: 1445 553d 13ae 023e 290f 833a 2c3b af3d
00000200: 627d 503e eb30 afbe 7061 cebe 9425 35be
00000210: d58d 2cbe f0f9 d13d 3fcb e2bb 94e9 173d
00000220: f39d e83b 0a21 c7be 6fc9 43be d376 36bb
00000230: 1fb6 0fbe d74b 2a3e b809 a6be db19 f8bd
00000240: c170 fdbc 6302 b939 1fba b3be 900a 9d3c
00000250: c2e4 c3be 218a a53d 27e7 a43b 8e1f 113d
00000260: 77a4 323e 1b60 be3d 5790 05be 39dc 493d
00000270: 812e 86be 8041 d5be dd8c a4be fc4b bcbe
00000280: cdbb 2dbe e795 0b3e b167 c3be 3652 5b3c
00000290: 2e32 5dbe 6482 eb3d 8bc0 efbd d946 58bd
000002a0: e5c5 8a3b 655e 42be f896 613d 6996 693c
000002b0: 11e1 d13b c174 96bd 325a 0cbc 1921 13bf
000002c0: 8f77 63be 8546 693e 03b9 47bd b453 d4be
000002d0: 7f8b 09be 0455 813d 7e1c 463e b20d 8bbe
000002e0: 011d 4a3e 2769 4d3e 8efc 593d 89b8 2e3e
000002f0: b779 e6bc ec45 dfbd 49a1 91be 7df3 50be
00000300: b135 b3be bc07 e7bd f0ed 153e 1221 c7be
00000310: 6788 8ebe 0f6f b23c a57e 843e dc6a e7bd
00000320: 7632 ecbd 003a 14bd 17f5 c3be 3647 1c3d
00000330: 4648 c9be 2a47 0d3e 1944 d6bd f8e9 94be
00000340: 352c 3ebe 4c11 03bf 299e a43e 0946 e1bd
00000350: 19b8 7d3d d06c dbbe 2910 babd a6b0 d2be
00000360: 9881 31bd 3f3c 423c caf4 e2be e629 96be
00000370: 9291 ef39 448b 9cbb 84a2 b43d 61cd c7be
00000380: 23a7 86be caaa d7be a88b 0abf f000 2b3d
00000390: 2693 5f3d 7610 c0be 1adb e13d dc0c 683d
000003a0: 0825 33be 77c7 673d d418 40be 3a2a 5cbe
000003b0: e36f e2be ffb8 bfbe bfc5 20be 6494 08be
000003c0: d24b a0be ad74 d23d 7574 89bb 6036 aa3d
000003d0: 214f 86be 3697 a2bc 6051 8abd 18fe 72ba
000003e0: c5fe d2be 0f21 943e 047a af3b e7b9 1cbc
000003f0: 64d7 a0bd 8be8 51be 7377 5abe 33f0 97be

weight f4 [200, 402]
0.4284383 0.23728433 -0.31102976 0.047102273 0.17152146 -0.015826907 0.31294248 -0.55386925
-1.1240443 0.42741212 0.14252599 -0.5409572 -0.13529599 -0.19226901 -0.8265025 0.753382
0.30743143 0.30820087 0.014904089 0.1708713 0.62315804 -0.060934518 0.05145895 -0.24598666
-0.3748404 -0.07513861 0.026378676 -0.17398314 -1.2978841 -0.14700386 0.2023762 -0.3615033
-0.82161397 -0.4597207 0.07262422 0.20552157 0.24011283 -0.5659899 -0.086423256 0.017256659
0.19557957 0.6994691 -0.91453034 -0.007052932 -0.38195822 0.0893509 -0.052539624 -1.2739155
0.114415765 0.064163126 0.27457276 -0.27677944 -0.3677813 0.5996533 0.21522893 0.054365337
-0.7908766 -0.4202154 -0.97010005 -0.21896546 -0.054776486 -0.15951458 0.11392759 -0.30102742
0.1783876 0.15274835 0.25326478 0.05670016 0.26527417 0.22988288 -0.013191594 -0.18458463
0.17255941 -0.18789183 -0.1343438 -0.96650136 0.058880016 -0.46797606 0.19834186 -0.00865783
0.106535375 0.0033327802 0.088346824 0.09164497 0.6021169 0.28467372 0.18160088 0.20565383
0.44913676 0.061425492 -0.6742783 -0.035068464 0.10662414 0.044154167 -0.29278958 0.40987372
-0.014802989 -0.20117654 0.108375154 0.039880477 -1.3223264 0.29029298 -0.7256542 -0.08082755
0.1774053 -0.7024186 0.3731573 -0.014701276 0.77375674 0.3085038 -0.43528602 0.12295896
-0.0269061 -1.0260704 -0.54370254 -0.36129117 0.17632492 0.114429444 0.04022029 -0.32337353
-0.5575728 0.0047358028 0.52134943 -1.0235728 0.007296042 0.37078092 -0.90055656 -0.09675335
-0.41694564 -0.040631693 0.35903406 0.22546001 0.30845785 -0.02237444 0.037648045 -0.11893242
-0.3535582 0.17767681 0.2080838 0.4195438 0.08142793 0.31869748 0.035088643 0.0035590637
-0.16484703 0.2960232 -0.30060068 -0.6709983 0.40255904 -0.21239594 0.34911487 -0.702095
-0.15829173 -0.039099455 -0.26720497 -0.48979956 0.37467083 0.25940156 -0.3582258 0.20973921
-0.16009451 -0.37084195 -0.284247 -0.4749328 -0.041159973 -0.32265604 0.18026154 -0.40818533
-0.010001541 -0.009687552 -0.018003607 0.038683638 -0.30393273 -0.021989636 0.16312897 0.3932074
0.35659507 0.04078532 -0.090087526 0.10657063 -0.29608932 0.0467211 0.09104684 -0.1646792
0.13373189 -0.13566816 -0.16199954 0.12723479 0.3978097 -0.6799202 -0.010820424 -0.95982665
0.65019083 -0.3572729 0.018975692 -0.12753583 -0.22163107 0.08493647 0.27523255 -0.3444405
-0.6373115 -0.15770106 0.09766729 0.05477102 0.20279734 0.32493973 -0.041235734 0.19428517
0.30686954 0.4578678 0.07886869 -0.25751302 -0.21681283 -0.046769246 -0.046814825 0.22281997
0.7240312 0.12209578 -0.24663644 -0.47519842 -0.45702755 -0.86568046 0.009753766 0.1292493
-0.3208272 0.3204314 0.24246517 -0.13253033 0.17880127 -0.057741135 -0.12673037 0.112729944
-0.32019007 -0.29146227 -0.5825273 0.23429962 -0.5442886 0.40707168 -0.04185506 0.060272135
0.43485716 -1.1907344 0.06468792 0.5366003 0.17572275 0.43435135 0.09624468 0.21855775
0.5307835 0.0022069633 -0.060894787 -0.305322 0.24273154 0.14446518 -0.87128615 -0.14776435
00000000: 445c db3e aafa 723e 4b3f 9fbe 50ee 403d
00000010: 52a3 2f3e 6ea7 81bc ff39 a03e 60ca 0dbf
00000020: afe0 8fbf c3d5 da3e 55f2 113e 2c7c 0abf
00000030: 088b 0abe 2be2 44be ab95 53bf a5dd 403f
00000040: a767 9d3e 81cc 9d3e 4830 743c e3f8 2e3e
00000050: 4987 1f3f 7996 79bd 9fc6 523d ede3 7bbe
00000060: 15eb bfbe 46e2 99bd 1818 d83c a328 32be
00000070: 1121 a6bf 2e88 16be b53b 4f3e f616 b9be
00000080: 4b55 52bf 8360 ebbe 02bc 943d 3f74 523e
00000090: 23e0 753e b7e4 10bf adfe b0bd d65d 8d3c
000000a0: 0346 483e 6810 333f a91e 6abf 481c e7bb
000000b0: 0790 c3be 9bfd b63d ca33 57bd aa0f a3bf
000000c0: d052 ea3d f567 833d cd94 8c3e 09b6 8dbe
000000d0: d54d bcbe e182 193f f964 5c3e 30ae 5e3d
000000e0: e476 4abf 7926 d7be 7a58 78bf 7b38 60be
000000f0: 4f5d 60bd ca57 23be de52 e93d 4420 9abe
00000100: 3dab 363e 106a 1c3e ecab 813e 6d3e 683d
00000110: 04d2 873e 6b66 6b3e 8e21 58bc c103 3dbe
00000120: 6ab3 303e b766 40be 6c91 09be a26c 77bf
00000130: 2c2c 713d 8f9a efbe 211a 4b3e 92d9 0dbc
00000140: 382f da3d c66a 5a3b 2eef b43d 5cb0 bb3d
00000150: 5524 1a3f c1c0 913e 95f5 393e eb96 523e
00000160: 41f5 e53e 4c99 7b3d 819d 2cbf f3a3 0fbd
00000170: c25d da3d 00db 343d 84e8 95be f8da d13e
00000180: 3c88 72bc 3901 4ebe cbf3 dd3d b659 233d
00000190: fe41 a9bf 48a1 943e 79c4 39bf ea88 a5bd
000001a0: bca9 353e b5d1 33bf 790e bf3e 9fdd 70bc
000001b0: ec14 463f 36f4 9d3e cfdd debe e8d1 fb3d
000001c0: 2e6a dcbc 4656 83bf 1730 0bbf 28fb b8be
000001d0: 858e 343e fc59 ea3d 08be 243d 3791 a5be
000001e0: 17bd 0ebf cb2e 9b3b 2877 053f 6f04 83bf
000001f0: a313 ef3b ffd6 bd3e e08a 66bf 9f26 c6bd
00000200: e679 d5be 6b6d 26bd 50d3 b73e fdde 663e
00000210: 30ee 9d3e 9a4a b7bc d634 1a3d d792 f3bd
00000220: 9505 b5be e9f0 353e eb13 553e 72ce d63e
00000230: b0c3 a63d 512c a33e 1cb9 0f3d 2e3f 693b
00000240: a9cd 28be 5a90 973e 55e8 99be 8bc6 2bbf
00000250: 381c ce3e 527e 59be 2fbf b23e 7fbc 33bf
00000260: 3a17 22be c026 20bd 17cf 88be 02c7 fabe
00000270: dbd4 bf3e 48d0 843e 5f69 b7be e0c5 563e
00000280: d1ef 23be ffde bdbe d388 91be 642a f3be
00000290: 5c97 28bd 2c33 a5be 7b96 383e abfd d0be
000002a0: 81dd 23bc 8ab8 1ebc 4d7c 93bc bc72 1e3d
000002b0: 129d 9bbe 9c23 b4bc 480b 273e 7b52 c93e
000002c0: a193 b63e 820e 273d cf7f b8bd b441 da3d
000002d0: 0599 97be a05e 3f3d c476 ba3d aaa1 28be
000002e0: 03f1 083e 98ec 0abe 35e3 25be d649 023e
000002f0: b7ad cb3e 400f 2ebf 2648 31bc 33b7 75bf
00000300: e872 263f 79ec b6be e972 9b3c c198 02be
00000310: 41f3 62be 2cf3 ad3d 48eb 8c3e 815a b0be
00000320: d926 23bf 637c 21be ca05 c83d 9457 603d
00000330: 1baa 4f3e 805e a63e cde6 28bd b1f2 463e
00000340: 011e 9d3e a66d ea3e e885 a13d bfd8 83be
00000350: 2f04 5ebe 1c91 3fbd e7c0 3fbd eb2a 643e
00000360: 1c5a 393f 5a0d fa3d 438e 7cbe 354d f3be
00000370: 84ff e9be 3c9d 5dbf 42ce 1f3c ee59 043e
00000380: 7643 a4be 960f a43e ca48 783e 08b6 07be
00000390: ae17 373e f881 6cbd 9bc5 01be f5de e63d
000003a0: f4ef a3be 8b3a 95be 8220 15bf 3dec 6f3e
000003b0: 7f56 0bbf b36b d03e 3670 2bbd eadf 763d
000003c0: 99a5 de3e fc69 98bf 1a7b 843d a35e 093f
000003d0: aaf0 333e 4d63 de3e ee1b c53d 9acd 5f3e
000003e0: 6de1 073f b3a2 103b d06c 79bd 2a53 9cbe
000003f0: 9e8e 783e aeee 133e 9c0c 5fbf 8a4f 17be

bias f4 [200]
-0.07019996 -0.01946088 -0.0030087584 0.14944187 0.15433386 -0.2259838 -0.0021869203 0.11563457
0.21700126 -0.069204845 0.1773524 0.12608886 0.016850974 -0.069163084 0.022544503 -0.328659
-0.14300235 0.0115284305 -0.009974203 0.010783518 -0.022667015 0.22339183 -0.31185907 0.03707812
0.07615262 -0.042685945 -0.04510567 0.19073418 -0.19211398 -0.0023933721 0.13114446 -0.19408458
0.0102091655 -0.12193685 0.02927511 -0.005916222 0.11918987 -0.0137506835 -0.18496233 0.13186818
0.17411354 0.24686094 -0.075649336 -0.44431633 0.06841792 0.24132146 -0.044126675 0.10834816
-0.040331885 0.12720443 0.009038725 0.001560576 -0.032470275 -0.19513695 -0.0108817015 -0.03905217
-0.0041450895 -0.31130874 -0.18318823 0.016737526 0.0027032497 0.20504373 -0.0036289261 -0.11899955
-0.09220389 0.11408272 0.014958412 0.10086227 -0.087476835 0.08044919 0.0012514603 0.035279248
-0.17722203 -0.037903942 0.07796139 -0.040944017 -0.015145303 -0.045327295 -0.115458004 0.17002298
0.18617728 -0.11791754 -0.30885804 -0.19085757 -0.26066715 -0.04252156 0.008676558 0.0064307465
0.10966995 0.13033193 -0.044229377 -0.18701312 0.16831043 0.032721844 -0.107193165 0.060692966
-0.019238021 0.079973444 0.11321403 0.036569897 -0.023651501 0.20999737 -0.14644651 0.14024076
-0.032036036 -0.08529949 -0.03171749 -0.26667958 -0.18105622 0.091187924 0.01587119 0.024688993
-0.031105304 0.014080798 -0.047373552 -0.06816194 -0.01843125 0.12978871 -0.18893166 0.006696126
0.23177691 -0.05520037 -0.034156147 -0.10856585 -0.051369756 0.03258628 0.3136352 0.16067575
-0.027970966 0.13120432 0.17854653 -0.23494627 0.0143175125 -0.0422118 -0.49640232 -0.02917458
-0.026475772 0.18598567 -0.043961555 0.17567007 -0.042313 -0.011268759 0.12124589 -0.1291185
-0.116820626 -0.12404047 0.121525005 0.1401767 -0.063611716 -0.040705804 0.1968137 -0.08670879
0.021150231 -0.047147404 -0.39511102 -0.016865427 -0.2041737 -0.080456376 0.044091232 0.114408694
0.01824467 0.026504345 0.069426216 -0.044074684 0.21378317 0.13595785 -0.052541375 -0.0008159372
-0.06074207 0.03056267 -0.026459374 0.07237778 -0.16190563 0.19121307 0.045260083 -0.054654308
-0.32845104 -0.076728225 0.20791265 0.004850296 0.12570651 0.18847348 0.038451716 -0.028480424
0.22951035 0.003910794 0.031743713 -0.012970343 -0.20606475 -0.038478754 0.21221732 -0.20852613
-0.07940979 -0.010084969 -0.098021254 0.043738224 0.16602436 0.09455089 0.08588686 0.09684127
00000000: ffc4 8fbd 6c6c 9fbc 972e 45bb 4a07 193e
00000010: b209 1e3e 4c68 67be 6f52 0fbb d1d1 ec3d
00000020: 9435 5e3e 45bb 8dbd de9b 353e 701d 013e
00000030: 0e0b 8a3c 60a5 8dbd 40af b83c fe45 a8be
00000040: 356f 12be bee1 3c3c d76a 23bc 5aad 303c
00000050: 2db0 b9bc d4c0 643e feab 9fbe 3adf 173d
00000060: e8f5 9b3d 75d7 2ebd b9c0 38bd d24f 433e
00000070: 87b9 44be 1fda 1cbb bc4a 063e 1cbe 46be
00000080: 5844 273c 07ba f9bd 5bd2 ef3c dedc c1bb
00000090: d219 f43d 8c4a 61bc c466 3dbe 7408 073e
000000a0: d24a 323e 1dc9 7c3e 0aee 9abd 6e7d e3be
000000b0: b21e 8c3d f91c 773e 2cbe 34bd a4e5 dd3d
000000c0: 0c33 25bd e141 023e 2917 143c 3e8c cc3a
000000d0: 8dff 04bd fbd1 47be 2a49 32bc 2bf5 1fbd
000000e0: 88d3 87bb dc63 9fbe b295 3bbe 231d 893c
000000f0: 0129 313b fcf6 513e 47d3 6dbb 09b6 f3bd
00000100: 65d5 bcbd 33a4 e93d 2114 753c e190 ce3d
00000110: 0e27 b3bd 8cc2 a43d 0a08 a43a f980 103d
00000120: b179 35be 2a41 1bbd 39aa 9f3d eab4 27bd
00000130: 0124 78bc 1da9 39bd 3f75 ecbd 811a 2e3e
00000140: 42a5 3e3e c07e f1bd a422 9ebe 2b70 43be
00000150: 2a76 85be 162b 2ebd 1f28 0e3c 03b9 d23b
00000160: a49a e03d bc75 053e dd29 35bd 5e80 3fbe
00000170: 9259 2c3e 5707 063d 1788 dbbd 3099 783d
00000180: 0e99 9dbc 1ec9 a33d c2dc e73d 51ca 153d
00000190: cbc0 c1bc 8d09 573e 13f6 15be 469b 0f3e
000001a0: 3838 03bd 80b1 aebd 33ea 01bd 3a8a 88be
000001b0: cd66 39be bcc0 ba3d 4c04 823c 9240 ca3c
000001c0: 8dd0 febc 26b3 663c c50a 42bd 7d98 8bbd
000001d0: 22fd 96bc 55e7 043e 4d77 41be 2d6b db3b
000001e0: ed56 6d3e c819 62bd 51e7 0bbd c657 debd
000001f0: 1869 52bd 3179 053d cb94 a03e 2f88 243e
00000200: 5e23 e5bc 6d5a 063e e7d4 363e c195 70be
00000210: 0094 6a3c 48e6 2cbd 7228 febe 87ff eebc
00000220: b8e3 d8bc 0773 3e3e 0811 34bd dbe2 333e
00000230: 6550 2dbd 9aa0 38bc c44f f83d a437 04be
00000240: a73f efbd ee08 febd 1ae2 f83d 7b8a 0f3e
00000250: dc46 82bd 21bb 26bd 8889 493e 6194 b1bd
00000260: 4043 ad3c a31d 41bd fe4b cabe 5d29 8abc
00000270: e912 51be 50c6 a4bd 0299 343d 1b4f ea3d
00000280: d975 953c a41f d93c 552f 8e3d a887 34bd
00000290: fae9 5a3e 8938 0b3e a035 57bd 9ee4 55ba
000002a0: adcc 78bd 915e fa3c 54c1 d8bc cd3a 943d
000002b0: 97ca 25be 5ccd 433e a362 393d 32dd 5fbd
000002c0: bc2a a8be b023 9dbd 0ee7 543e 3bef 9e3b
000002d0: 35b9 003e 31ff 403e 8c7f 1d3d c74f e9bc
000002e0: c304 6b3e 1e26 803b b205 023d 9081 54bc
000002f0: a302 53be e69b 1dbd 7f4f 593e e087 55be
00000300: 9aa1 a2bd 6d3b 25bc 5ebf c8bd da26 333d
00000310: 4a02 2a3e e6a3 c13d 73e5 af3d b754 c63d

weight f4 [1, 200]
-0.6474112 -0.0028876564 0.02108732 -0.1310252 -0.29310405 -1.1005452 -0.002157152 -0.08577939
-0.30870205 0.0070056147 -0.5328782 1.28717 -0.25146058 -0.6268019 0.030178128 -0.8343548
-0.5054555 0.18316504 0.0052202884 0.0008242879 0.021724539 1.0642347 -0.75606 1.0006026
-0.090919375 0.023347147 -0.005460207 -0.20047535 -0.6058812 0.23283076 -0.6071603 -0.35144457
-0.0020460302 -0.8141597 0.75351757 0.026370393 -0.17790957 0.029144932 -0.80653965 -0.16243829
-0.16956075 0.84188986 -0.58834213 -1.2464707 -0.54888874 -0.3365947 -0.40448698 -0.28531688
0.020089291 -0.13537382 -1.083959 -0.5835212 -0.22790715 -0.5368506 -0.009886373 -0.00772399
-0.3529661 -1.0780721 -0.80038506 0.030819627 0.04109398 -0.18634343 0.043325227 1.0592638
-1.2114097 -0.12276595 0.04120176 -0.18948534 1.277408 0.9320741 0.016982768 -0.75496083
-0.57426757 0.17883344 -0.32553586 0.02137184 0.0075393147 0.002200452 -0.63718754 -0.09438051
-0.085798 -0.003968262 -0.50082827 -0.4870534 -0.39270863 0.054805025 -0.0040202937 0.019068135
-0.1841141 -0.1860798 0.048218615 -0.5458676 -0.14947845 0.16042463 -0.5002423 0.9802014
0.034329966 -0.23958878 -0.34031904 -0.15301763 -0.009399796 -0.17884879 -1.0163006 -0.32959405
0.00065805326 0.35227782 0.04713503 -0.84066415 -0.8992043 1.0079625 0.0084175635 0.42874098
0.07136285 -0.4901587 0.061222408 0.0046643354 0.016930275 -0.09647202 -1.0521553 0.011982115
-0.37161943 -0.0032714522 -0.023475572 -1.1907051 0.2854744 -0.27583894 1.0188462 -0.40490687
-0.0051086075 1.0577772 -0.45590943 -0.8250197 0.010708101 0.0017646385 -0.93612975 0.21735975
0.00092235097 -0.18992235 0.35285085 0.9026869 0.040281188 0.0131964255 -0.07015288 0.18555538
-0.4730497 -1.0667987 0.7586821 1.2390978 0.01827073 0.01195467 -0.4014521 0.3958611
0.43710136 0.012074938 -1.1580535 0.020084703 -1.0696969 -0.44449535 -0.38600826 0.935179
-0.003786148 -0.7459111 1.3280454 -0.50662297 -0.32842776 -0.1564498 0.0451926 -1.3167574
0.014877025 0.4554176 -0.988457 -0.49130234 -0.9606251 -0.39121786 -1.5676792 -0.7670337
-0.77944434 -1.1795043 -0.11426005 -0.24631025 -0.1602026 0.54040515 0.2011993 0.037926815
1.1838931 0.0009592276 -0.35981733 0.009660116 -0.40825596 0.04778318 -0.21799067 -0.35189307
0.025020467 0.044243712 -0.7748027 0.17375207 -0.20064703 -0.28071204 -0.10968992 -0.085940674
00000000: bebc 25bf d63e 3dbb 51bf ac3c 782b 06be
00000010: bc11 96be aade 8cbf 015f 0dbb 1bad afbd
00000020: 320e 9ebe 5b8f e53b b56a 08bf fdc1 a43f
00000030: 71bf 80be 1776 20bf 1f38 f73c 4798 55bf
00000040: 8865 01bf 9e8f 3b3e f40e ab3b 0615 583a
00000050: a9f7 b13c d838 883f 268d 41bf bf13 803f
00000060: f033 babd 8442 bf3c 89eb b2bb 6949 4dbe
00000070: 081b 1bbf 306b 6e3e db6e 1bbf 8bf0 b3be
00000080: b116 06bb c56c 50bf 87e6 403f b906 d83c
00000090: ed2d 36be 5ac1 ee3c 6279 4ebf 3956 26be
000000a0: 55a1 2dbe 1886 573f 979d 16bf 5a8c 9fbf
000000b0: f983 0cbf 2456 acbe eb18 cfbe 0e15 92be
000000c0: 4c92 a43c 6f9f 0abe 2bbf 8abf a561 15bf
000000d0: 7e60 69be 0a6f 09bf 74fa 21bc 8619 fdbb
000000e0: f9b7 b4be 44fe 89bf 09e6 4cbf 7179 fc3c
000000f0: 2952 283d d0d0 3ebe cb75 313d f595 873f
00000100: 790f 9bbf b76c fbbd 2dc3 283d 7208 42be
00000110: 1b82 a33f 699c 6e3f 721f 8b3c 1d45 41bf
00000120: 3303 13bf 1d20 373e a3ac a6be ff13 af3c
00000130: 5b0c f73b 7535 103b b91e 23bf 924a c1bd
00000140: ddb6 afbd 3208 82bb 4836 00bf 105f f9be
00000150: 1b11 c9be 3c7b 603d abbc 83bb c734 9c3c
00000160: 6888 3cbe b48b 3ebe e280 453d fbbd 0bbf
00000170: e110 19be 5b46 243e e10f 00bf 7bee 7a3f
00000180: 949d 0c3d c356 75be 4c3e aebe a7b0 1cbe
00000190: 9a01 1abc 2324 37be 2316 82bf 8dc0 a8be
000001a0: 3581 2c3a c25d b43e a910 413d c435 57bf
000001b0: 4132 66bf ea04 813f d2e9 093c f083 db3e
000001c0: b026 923d 15f6 fabe 59c4 7a3d 48d7 983b
000001d0: 5cb1 8a3c 1f93 c5bd 06ad 86bf a250 443c
000001e0: e744 bebe dc65 56bb d84f c0bc 0669 98bf
000001f0: b329 923e c33a 8dbe 8d69 823f f44f cfbe
00000200: 1b66 a7bb 3e65 873f f66c e9be 7e34 53bf
00000210: 0871 2f3c 714b e73a 33a6 6fbf 8e93 5e3e
00000220: edc9 713a 017b 42be dea8 b43e 7d16 673f
00000230: e3fd 243d d235 583c 50ac 8fbd 3b02 3e3e
00000240: 9233 f2be dc8c 88bf fd38 423f c29a 9e3f
00000250: 7fac 953c 85dd 433c 218b cdbe 4eae ca3e
00000260: c0cb df3e f6d5 453c 193b 94bf ad88 a43c
00000270: d4eb 88bf e594 e3be e0a2 c5be e467 6f3f
00000280: 0621 78bb 08f4 3ebf 64fd a93f 0bb2 01bf
00000290: af27 a8be 6034 20be e01b 393d 828b a8bf
000002a0: c4be 733c 7f2c e93e 850b 7dbf fb8b fbbe
000002b0: 87eb 75bf b54d c8be b6a9 c8bf 525c 44bf
000002c0: aa89 47bf fff9 96bf 2c01 eabd c138 7cbe
000002d0: 260c 24be fe57 0a3f 3007 4e3e 2659 1b3d
000002e0: cf89 973f ad74 7b3a fa39 b8be 7745 1e3c
000002f0: ed06 d1be 4cb8 433d f238 5fbe 542b b4be
00000300: b9f7 cc3c e538 353d 7859 46bf 10ec 313e
00000310: 6a76 4dbe 7db9 8fbe 1ca5 e0bd aa01 b0bd
